fastAPI/scenario/model/final_model.pt (torch, 341052 bytes, 22 tensors)

lstm_layers.0.weight_ih_l0 f4 [4, 14]
-0.2239112 -0.24287929 0.33358493 -0.15654296 0.4005249 -0.25017527 -0.52415645 0.399334
-0.4094578 -0.18852387 -0.49776128 0.3737986 0.5077548 0.013465654 -0.51927304 0.48610818
0.22913784 -0.3278773 0.13768178 -0.51849014 -0.16404349 -0.30311733 -0.5264833 0.5568546
-0.33447355 -0.53899837 -0.3597191 0.027659655 0.29640478 0.29158548 0.55967575 -0.25155428
0.16063595 -0.4964745 0.07951599 0.56233776 -0.047796246 0.31986237 0.04480605 -0.46304896
-0.11906147 0.40872067 -0.05200369 0.3394835 -0.10877301 0.5382463 -0.275566 -0.33227992
-0.46663567 -0.5154948 -0.040865593 0.030562228 0.15617065 -0.19728187 -0.5047728 -0.1529938
00000000: fa48 65be 59b5 78be a5cb aa3e cc4c 20be
00000010: 9a11 cd3e f916 80be 1e2f 06bf 8275 cc3e
00000020: 74a4 d1be 670c 41be 91da febe 8862 bf3e
00000030: 38fc 013f 0c9f 5c3c 14ef 04bf 2ce3 f83e
00000040: 1ca3 6a3e 89df a7be 74fc 0c3e c5bb 04bf
00000050: 04fb 27be 3232 9bbe 9cc7 06bf 068e 0e3f
00000060: 1e40 abbe ccfb 09bf 1a2d b8be 8096 e23c
00000070: 5ec2 973e b14a 953e e946 0f3f b9cb 80be
00000080: c07d 243e e831 febe 48d9 a23d 5ef5 0f3f
00000090: ffc5 43bd 00c5 a33e 8c86 373d c114 edbe
000000a0: 80d6 f3bd d643 d13e d201 55bd c8d0 ad3e
000000b0: 62c4 debd 82ca 093f fd16 8dbe 9820 aabe
000000c0: dfea eebe 78f7 03bf ae62 27bd a35d fa3c
000000d0: 33eb 1f3e 4204 4abe ca38 01bf 68aa 1cbe

lstm_layers.0.weight_hh_l0 f4 [4, 1]
-0.6664188 0.67583215 0.6144676 0.4489888
00000000: 6c9a 2abf 5603 2d3f c04d 1d3f dce1 e53e

lstm_layers.0.bias_ih_l0 f4 [4]
0.03640811 0.0 0.0019268299 0.045159273
00000000: ac20 153d 0000 0000 af8d fc3a eef8 383d

lstm_layers.0.bias_hh_l0 f4 [4]
0.03640811 0.0 0.0019268299 0.045159273
00000000: ac20 153d 0000 0000 af8d fc3a eef8 383d

lstm_layers.0.weight_ih_l0_reverse f4 [4, 14]
0.033354953 -0.10659576 0.18386996 -0.12132734 0.060212612 -0.15741673 0.3435887 0.50166583
-0.45479614 -0.404471 -0.36604455 0.2972972 -0.30466354 0.18386737 0.47745132 -0.53540283
-0.3855809 -0.103162825 0.43676698 -0.31379485 -0.029177308 0.5395247 0.0098598 -0.34651864
-0.094084054 0.39730215 -0.31895438 0.06318301 0.1302299 0.08776226 0.52152824 -0.016990542
0.5117761 0.5562168 0.3977567 -0.049670577 -0.26995704 -0.45705384 -0.48217204 -0.17109098
0.39197367 -0.0774117 -0.02517125 0.42928293 -0.24763079 0.28831506 -0.14946279 -0.459957
-0.06900227 -0.40452892 0.037407313 0.5243976 -0.37279117 -0.073165886 -0.6196355 -0.21407232
00000000: 349f 083d e14e dabd 6848 3c3e 787a f8bd
00000010: 80a1 763d da31 21be dcea af3e 2c6d 003f
00000020: 0adb e8be d316 cfbe 316a bbbe 5737 983e
00000030: dcfc 9bbe ba47 3c3e 8074 f43e 2910 09bf
00000040: dc6a c5be 0847 d3bd ec9f df3e b8a9 a0be
00000050: 4005 efbc 4a1e 0a3f 008b 213c e46a b1be
00000060: 24af c0bd 306b cb3e fd4d a3be 1866 813d
00000070: fd5a 053e b3bc b33d e082 053f c02f 8bbc
00000080: c203 033f 3964 0e3f c4a6 cb3e 6073 4bbd
00000090: cf37 8abe f602 eabe 41df f6be 7932 2fbe
000000a0: c6b0 c83e 068a 9ebd f033 cebc f9ca db3e
000000b0: ed92 7dbe 089e 933e c60c 19be 7c7f ebbe
000000c0: 1051 8dbd 6a1e cfbe 6938 193d ec3e 063f
000000d0: 7cde bebe ffd7 95bd 6fa0 1ebf c635 5bbe

lstm_layers.0.weight_hh_l0_reverse f4 [4, 1]
0.59016645 -0.06756699 0.75427616 0.7183732
00000000: 2615 173f 9060 8abd 3e18 413f 4ee7 373f

lstm_layers.0.bias_ih_l0_reverse f4 [4]
0.017945291 0.0 -0.02684952 0.024656098
00000000: 0102 933c 0000 0000 86f3 dbbc 96fb c93c

lstm_layers.0.bias_hh_l0_reverse f4 [4]
0.017945291 0.0 -0.02684952 0.024656098
00000000: 0102 933c 0000 0000 86f3 dbbc 96fb c93c

fc_layers.0.weight f4 [128, 2]
-0.0058840583 -0.023740496 0.101395085 0.0921266 -0.086438194 0.0361167 -0.23465851 0.10256133
-0.019506348 -0.14422157 0.01482702 0.11832908 -0.014864287 0.18455867 0.05504514 -0.17480154
0.12819186 0.20575209 0.14899401 -0.13424532 -0.16765262 0.21010455 0.053654075 0.20940518
-0.130212 0.18150276 0.070280775 0.07836293 0.15310955 0.04063633 -0.24385926 0.027818512
-0.0634466 -0.04952952 0.16331857 -0.01358824 0.20635907 -0.085742734 0.11473446 0.0099619515
0.13656652 -0.19918834 0.21533364 0.1431805 -0.22022669 0.18577987 -0.043570977 -0.12622766
-0.08847405 0.15123977 -0.14936393 0.04617364 -0.23089337 0.10293953 0.12515211 0.23739383
-0.23561375 0.09562007 -0.04010932 0.18092921 0.087844014 -0.14230864 -0.012656002 -0.11083908
-0.074572064 -0.018207809 0.18767112 -0.1884549 -0.0072726025 0.19750153 0.08873967 -0.07078347
0.17332305 0.14043218 0.23385112 -0.09072505 0.08361053 0.053277474 -0.1117081 -0.16938667
-0.13440417 0.17320374 0.045609586 -0.1378017 -0.08580639 -0.13636357 0.07315705 -0.13144337
-0.090278484 -0.08160217 -0.03578756 -0.1308933 0.1458236 -0.08089082 0.084899664 0.15292957
-0.15334329 -0.16398431 -0.012002052 -0.17755044 -0.11678517 0.22010982 -0.24972358 -0.01548266
-0.114587106 0.048611276 0.020720921 0.14345638 -0.2598277 -0.06202988 -0.15173927 -0.17614561
-0.10453533 0.019196905 0.12594432 0.0030341304 -0.013205276 0.13333336 -0.2101301 0.16618195
0.005716492 -0.22201857 0.09431586 -0.03303473 0.011914565 -0.04612085 -0.14388068 -0.034945782
0.0475832 -0.17513017 0.13420835 -0.1669582 0.021654144 0.05567115 0.055290185 -0.042102735
0.19524479 -0.034690645 0.15115663 -0.113139406 0.20743565 -0.13043587 -0.23491739 -0.053526524
0.10819266 -0.032684077 0.117841706 -0.14935283 -0.2005062 0.13266547 -0.019396856 -0.2063612
0.083410025 0.112949654 0.07891333 0.22158031 -0.031020477 0.009389575 -0.032993782 0.04923383
-0.18021657 -0.059861314 0.076914035 -0.026575165 0.006471885 0.20639753 -0.25493416 -0.058796097
0.0391555 0.112517454 0.10680495 0.0025517938 0.0884697 0.12600563 0.19392729 -0.10953147
-0.24881917 0.15726016 0.18544587 0.12066336 -0.21099901 0.15069214 -0.14038496 -0.23813902
0.16924872 -0.04677388 -0.02029976 -0.049877025 0.06268315 0.039982505 -0.05779731 -0.18393718
-0.107064255 -0.22194248 0.10587628 -0.17409046 -0.13271204 0.058151152 0.038808398 -0.10374798
0.12126517 0.20579834 -0.24234219 0.13792564 -0.23894964 0.072298646 0.0056026857 -0.1090295
0.078883395 0.1700749 0.025900142 0.14386462 -0.14789258 0.07019667 -0.058081694 0.212158
0.059082966 0.033415664 -0.17533804 -0.012762238 -0.07004776 0.2361745 0.10486926 0.029194498
-0.07307422 -0.19402385 0.13758095 0.101743825 0.010401495 0.14376636 -0.006538011 0.057705414
-0.23981367 0.22054563 0.16840248 0.21284406 -0.13594319 -0.07179476 -0.1455166 -0.13070743
-0.08299868 -0.121174626 -0.22923373 0.02112587 0.0294592 -0.022222223 0.13452396 0.10184882
0.1623437 -0.05805876 -0.10972192 -0.13093652 -0.06269376 0.088447094 -0.13800658 -0.1384433
00000000: 0fcf c0bb 6e7b c2bc 3aa8 cf3d dfac bc3d
00000010: 8206 b1bd 1bef 133d 524a 70be ad0b d23d
00000020: c7cb 9fbc d2ae 13be 07ed 723c 8456 f23d
00000030: 5789 73bc f3fc 3c3e 0377 613d 2dff 32be
00000040: ba44 033e adb0 523e e391 183e 9b77 09be
00000050: 21ad 2bbe a625 573e 60c4 5b3d 506e 563e
00000060: 4b56 05be dcdb 393e 5eef 8f3d be7c a03d
00000070: c0c8 1c3e 4872 263d 3eb6 79be a6e3 e33c
00000080: 4bf0 81bd 77df 4abd fc3c 273e 36a1 5ebc
00000090: cb4f 533e e399 afbd e7f9 ea3d 7437 233c
000000a0: 18d8 0b3e 07f8 4bbe 6c80 5c3e e99d 123e
000000b0: 1b83 61be 143d 3e3e 7b77 32bd d341 01be
000000c0: e231 b5bd 99de 1a3e dcf2 18be 9220 3d3d
000000d0: 506f 6cbe f6d1 d23d e027 003e 5e17 733e
000000e0: bb44 71be 75d4 c33d ac49 24bd 8245 393e
000000f0: 90e7 b33d 5bb9 11be 1f5b 4fbc 99ff e2bd
00000100: 3db9 98bd 8b28 95bc dc2c 403e 52fa 40be
00000110: 034f eebb d73d 4a3e 25bd b53d edf6 90bd
00000120: 997b 313e 74cd 0f3e ab76 6f3e 0ece b9bd
00000130: ff3b ab3d 7b39 5a3d 37c7 e4bd b373 2dbe
00000140: 3fa1 09be 525c 313e 1ed1 3a3d e41b 0dbe
00000150: 43bb afbd e4a2 0bbe 5dd3 953d 1799 06be
00000160: ede3 b8bd 0a1f a7bd fa95 12bd e508 06be
00000170: c852 153e 16aa a5bd e0df ad3d 9299 1c3e
00000180: 0606 1dbe 81eb 27be 41a4 44bc c8cf 35be
00000190: 102d efbd 7864 613e 8ab7 7fbe fcaa 7dbc
000001a0: a5ac eabd 9e1c 473d ecbe a93c 3be6 123e
000001b0: 2308 85be 0b13 7ebd 8a61 1bbe 845f 34be
000001c0: 9e16 d6bd d442 9d3c 8cf7 003e 43d8 463b
000001d0: f15a 58bc 8a88 083e 582c 57be 9a2b 2a3e
000001e0: 6951 bb3b d658 63be ac28 c13d 6d4f 07bd
000001f0: 4f35 433c 37e9 3cbd 7555 13be 4f23 0fbd
00000200: 9ae6 423d 5355 33be ea6d 093e 17f7 2abe
00000210: 0864 b13c 6f07 643d f677 623d eb73 2cbd
00000220: 40ee 473e c717 0ebd cec8 1a3e a2b5 e7bd
00000230: 036a 543e fb90 05be 2f8e 70be a13e 5bbd
00000240: 1d94 dd3d bddf 05bd fe56 f13d f3ef 18be
00000250: 7f51 4dbe 75d9 073e 28e6 9ebc 5a50 53be
00000260: e0d2 aa3d 2652 e73d 509d a13d f3e5 623e
00000270: a81e febc bbd6 193c 7d24 07bd 6aa9 493d
00000280: b18a 38be 2331 75bd 1b85 9d3d 29b4 d9bc
00000290: 1b12 d43b e059 533e bb86 82be 2dd4 70bd
000002a0: 8461 203d 8d6f e63d 8ebc da3d ff3b 273b
000002b0: 9a2f b53d 9f07 013e e094 463e 0952 e0bd
000002c0: 74ca 7ebe cf08 213e 86e5 3d3e 5a1e f73d
000002d0: 2010 58be 0a4f 1a3e 13c1 0fbe b7da 73be
000002e0: 894f 2d3e f895 3fbd af4b a6bc da4b 4cbd
000002f0: 0660 803d b2c4 233d dfbc 6cbd 075a 3cbe
00000300: 8144 dbbd e444 63be aad5 d83d c544 32be
00000310: aae5 07be e72f 6e3d 8ef5 1e3d d279 d4bd
00000320: e059 f83d cdbc 523e 8d28 78be 613c 0d3e
00000330: 37af 74be 5011 943d bc96 b73b dc4a dfbd
00000340: 9e8d a13d 1d28 2e3e 892c d43c 3f51 133e
00000350: 2771 17be 46c3 8f3d 12e7 6dbd f23f 593e
00000360: fb00 723d ddde 083d d18b 33be b518 51bc
00000370: 3375 8fbd bad7 713e b2c5 d63d 4d29 ef3c
00000380: f0a7 95bd 30ae 46be 05e2 0c3e 115f d03d
00000390: 086b 2a3c 7d37 133e d03c d6bb 835c 6c3d
000003a0: b791 75be b7d6 613e b371 2c3e cbf3 593e
000003b0: b134 0bbe 2209 93bd 4e02 15be 2bd8 05be
000003c0: 36fb a9bd 672a f8bd 3fbc 6abe 2910 ad3c
000003d0: 6c54 f13c 610b b6bc a6c0 093e 1d96 d03d
000003e0: 6d3d 263e 06cf 6dbd e3b5 e0bd 3914 06be
000003f0: 9665 80bd c023 b53d 9951 0dbe 15c4 0dbe

fc_layers.0.bias f4 [128]
-0.0065150238 0.0032432578 0.0019237106 -0.00081829116 -0.0013264165 0.006361803 0.006072024 0.019619623
0.0020365033 0.026140515 -0.013643708 -0.013711335 -0.011557409 -0.010312988 0.006687977 0.011718757
-0.009373376 -0.013337073 0.021851318 0.008939509 -0.0011769286 -0.017791145 0.005297091 -0.002546469
0.008441511 0.006082126 0.009280962 0.008733459 0.0059940023 0.010973848 -0.0011082692 -0.01905931
0.007171538 -0.00012175672 0.011826413 0.017034948 -0.0113088675 0.022810882 -0.008849071 -0.0060047233
0.010113585 -0.01419575 -0.0052072136 -0.0217911 -0.0069410605 0.0027992744 -0.011814678 -0.002577933
0.0041897236 -0.0035823854 0.013657804 0.016240032 0.0022580884 0.0037288521 0.014671354 -0.009918785
0.003951554 0.0048138606 0.00578957 0.0053596487 -0.00080759113 0.013465693 -0.0034549637 -0.012878706
0.026846968 -0.0005935342 -0.003972973 0.012614443 0.0039323824 0.006169984 -0.0016828995 0.01518047
0.0083634555 -0.0037863138 0.0043492983 -0.0031630718 -0.0046033603 0.008047448 -0.0041383575 -0.012256477
0.0131376 -0.0008379395 0.0114840465 0.014554841 0.0049020383 -0.008385326 -0.010475262 0.015077956
0.008519571 -0.005964267 -0.0033012836 -0.010333838 -0.008285919 -0.015860649 -0.0068615424 -0.004663089
0.013730809 -0.00073513086 0.0023710497 -0.0018205746 0.00973491 0.0067999926 0.005324581 -0.006157837
0.0052385638 -0.009524587 -0.00083007646 0.007293241 0.0048809834 0.011593486 0.013768951 0.011208917
-0.004359533 -0.01306689 -0.009791148 -0.017451156 0.0037717435 -0.017313464 -0.0071829963 -0.0072573414
-0.00914475 0.008186766 -0.014130107 -0.014334484 -0.00023467437 -0.00833813 -0.005427638 -0.00895315
00000000: fb7b d5bb d68c 543b 0425 fc3a 9782 56ba
00000010: 27db adba ac76 d03b d4f7 c63b 55b9 a03c
00000020: db76 053b a224 d63c dc89 5fbc 82a5 60bc
00000030: 495b 3dbc cff7 28bc d126 db3b 0800 403c
00000040: ca92 19bc bd83 5abc 8901 b33c 0577 123c
00000050: 2c43 9aba bcbe 91bc 3893 ad3b a9e2 26bb
00000060: 434e 0a3c 924c c73b 2d0f 183c c816 0f3c
00000070: 5669 c43b a8cb 333c 5843 91ba 4522 9cbc
00000080: 39ff ea3b a457 ffb8 92c3 413c e08c 8b3c
00000090: d448 39bc e3dd ba3c b2fb 10bc 45c3 c4bb
000000a0: 73b3 253c 4a95 68bc 46a1 aabb 4083 b2bc
000000b0: d671 e3bb 0874 373b 5a92 41bc 8af2 28bb
000000c0: f349 893b 74c6 6abb fbc4 5f3c d109 853c
000000d0: 70fc 133b c25f 743b 1e60 703c 6682 22bc
000000e0: 0a7c 813b 97bd 9d3b 6fb6 bd3b fe9f af3b
000000f0: 86b4 53ba 369f 5c3c ac6c 62bb 3501 53bc
00000100: 2cee db3c 6897 1bba b72f 82bb cfac 4e3c
00000110: 37db 803b 942d ca3b bd94 dcba 82b7 783c
00000120: e006 093c ce23 78bb 8f84 8e3b 8a4b 4fbb
00000130: c9d7 96bb 71d9 033c 0f9b 87bb 64cf 48bc
00000140: 173f 573c 2ba9 5bba 9527 3c3c 6e77 6e3c
00000150: 47a1 a03b 9b62 09bc 6fa0 2bbc 8809 773c
00000160: ac95 0b3c e66f c3bb 595a 58bb 424f 29bc
00000170: aac1 07bc 31ee 81bc cad6 e0bb d3cc 98bb
00000180: 30f7 603c ccb5 40ba 9d63 1b3b 59a0 eeba
00000190: 2c7f 1f3c 79d2 de3b d379 ae3b aec7 c9bb
000001a0: 42a8 ab3b 030d 1cbc 7d99 59ba 24fc ee3b
000001b0: a8f0 9f3b 9bf2 3d3c 2b97 613c 9ba5 373c
000001c0: 6ada 8ebb 8216 56bc 0d6b 20bc baf5 8ebc
000001d0: 5b2f 773b f7d4 8dbc 575f ebbb fece edbb
000001e0: ddd3 15bc c921 063c f781 67bc 2fdb 6abc
000001f0: ec12 76b9 a79c 08bc 54da b1bb 3cb0 12bc

fc_layers.1.weight f4 [128, 128]
-0.05662381 0.0215507 0.080700286 0.15128852 -0.028322719 -0.0032554627 -0.012351199 0.14209777
-0.004078303 0.07432694 0.14081492 0.014125049 -0.09348105 0.030008733 -0.09422344 0.014516235
0.0957572 0.071634516 -0.002024179 -0.12262412 -0.020371264 0.03138517 0.09122925 0.04872798
0.12745598 0.056664355 -0.08519784 0.11780424 -0.056017183 -0.11514512 -0.11512522 -0.04208447
0.11621496 0.019265655 -0.093553536 0.07522746 -0.013667643 -0.044489615 -0.022476375 -0.02541629
-0.0020557595 -0.12602882 -0.11422949 0.01288344 -0.051545464 -0.1426523 -0.15051387 -0.1465024
0.032264076 -0.05672764 -0.14703274 -0.11637511 0.024460755 -0.052094653 -0.12492704 0.1495106
0.14755784 0.101945095 -0.09467459 -0.016435293 0.13027008 -0.055071108 0.14962335 0.1429842
-0.047083396 -0.019499868 -0.069513164 -0.012593153 -0.07579791 -0.11876181 0.0566149 0.14388235
-0.036566895 -0.046857625 -0.01658287 -0.07384426 -0.10226478 -0.016723178 -0.06325956 0.0031180382
-0.09252572 -0.13409995 -0.10447319 -0.06551091 -0.04593864 -0.06900221 -0.039918013 0.095377766
0.13025707 -0.08630278 0.0257552 -0.095112145 0.09432328 -0.034031935 0.052284658 -0.05043903
-0.11529881 -0.15472116 0.0034988085 0.045929387 0.0036982482 0.016403047 0.09100256 -0.11607553
0.1183498 -0.04411947 -0.038554613 0.03705028 0.024892451 0.11147222 0.035695925 -0.08968796
0.14837633 0.0026187897 0.04922916 -0.039615847 -0.15119249 0.1468981 -0.1334178 -0.124134235
-0.051108263 0.12506771 0.08112873 -0.1236814 -0.12450798 -0.027807787 0.0183381 -3.713007e-05
0.10281712 0.11774028 0.08069065 0.16779357 -0.030213816 0.10864475 0.052852016 -0.09352173
-0.05806651 0.034642007 -0.10919638 0.08555994 -0.109307796 -0.053147 0.03700034 0.17770384
0.05482399 0.0019935593 0.0059262393 0.09616194 0.09643748 0.096418254 0.14542842 0.09555109
0.14690188 0.17413436 0.15439546 0.16853453 -0.056835763 0.096410386 -0.089151 -0.04508846
0.032556094 -0.1479358 0.16696861 -0.0599591 -0.1159903 -0.0029195389 0.05596608 0.08758197
0.06198443 0.0687149 0.10683429 -0.023604913 0.020613957 0.018255545 -0.047700673 0.095622405
-0.14893235 0.10190886 -0.030263828 0.019139297 -0.052177683 0.10961506 -0.047597814 0.041145675
0.12682557 0.08287451 -0.12794735 0.033880696 0.11915138 -0.059185363 0.12526993 -0.12577277
-0.166632 -0.15223204 0.026491025 0.044638127 0.1171999 -0.14711891 -0.0047716117 0.1729781
-0.12017037 -0.03231684 -0.06266713 0.05454478 -0.122866645 0.13599527 -0.036332134 0.021264916
0.10967862 0.006958389 0.11548861 0.061944906 0.1413929 0.12242908 -0.06654048 0.069901004
0.009424288 0.12265192 -0.011392939 0.07241357 -0.03844969 0.05060111 -0.099465795 0.018980553
0.06385296 -0.0884603 -0.07098166 -0.038964845 0.060751714 0.119491115 -0.036102682 0.13539262
0.16574502 0.04084003 0.19029248 0.14517118 0.14522234 0.06366417 0.06931853 0.115137696
0.10071544 0.0107826805 0.043290492 -0.005489779 -0.08279514 -0.123517476 -0.0123810405 -0.06271268
0.13737802 -0.08496081 -0.08729838 -0.0345305 0.116290316 0.0327729 0.05411492 0.033490032
00000000: 5eee 67bd 188b b03c 3146 a53d 61eb 1a3e
00000010: 0c05 e8bc 9a59 55bb af5c 4abc 1482 113e
00000020: 49a3 85bb b938 983d c931 103e c06c 673c
00000030: fe72 bfbd e0d4 f53c 38f8 c0bd 81d5 6d3c
00000040: 5a1c c43d 1eb5 923d 17a8 04bb 5b22 fbbd
00000050: a3e1 a6bc bc8d 003d 67d6 ba3d fe96 473d
00000060: d283 023e e218 683d 357c aebd 5943 f13d
00000070: 4672 65bd 34d1 ebbd c5c6 ebbd c460 2cbd
00000080: 1c02 ee3d 02d3 9d3c ff98 bfbd db10 9a3d
00000090: 40ee 5fbc be3a 36bd 6020 b8bc d335 d0bc
000000a0: ecb9 06bb b30d 01be 27f1 e9bd 1015 533c
000000b0: 5621 53bd 7213 12be 4f20 1abe ba04 16be
000000c0: 5627 043d 3e5b 68bd c08f 16be 1356 eebd
000000d0: ec61 c83c 3461 55bd bfd9 ffbd 4f19 193e
000000e0: 6719 173e 97c8 d03d c0e4 c1bd 4fa3 86bc
000000f0: 8565 053e 3e92 61bd dd36 193e 736a 123e
00000100: 85da 40bd 30be 9fbc eb5c 8ebd 8353 4ebc
00000110: ef3b 9bbd 6439 f3bd 06e5 673d e555 133e
00000120: 2bc7 15bd c8ed 3fbd cdd8 87bc a93b 97bd
00000130: 3270 d1bd 0cff 88bc 3a8e 81bd 0058 4c3b
00000140: 207e bdbd 7f51 09be 0af6 d5bd 952a 86bd
00000150: 282a 3cbd 0851 8dbd 1281 23bd 6b55 c33d
00000160: 1c62 053e 83bf b0bd 92fc d23c 28ca c2bd
00000170: 902c c13d 1265 0bbd 7028 563d 2899 4ebd
00000180: c821 ecbd 396f 1ebe 444c 653b 7420 3c3d
00000190: 4f5e 723b af5f 863c 8d5f ba3d 02b9 edbd
000001a0: 6161 f23d 9eb6 34bd 71eb 1dbd 09c2 173d
000001b0: 41eb cb3c 8c4b e43d e435 123d 52ae b7bd
000001c0: f7ef 173e 00a0 2b3b 84a4 493d 3a44 22bd
000001d0: 34d2 1abe 756c 163e ad9e 08be 173a febd
000001e0: e656 51bd c011 003e d226 a63d ad4c fdbd
000001f0: 0afe febd 28cd e3bc c839 963c 1cbc 1bb8
00000200: c891 d23d d121 f13d 2441 a53d 14d2 2b3e
00000210: f782 f7bc 2481 de3d 5b7b 583d 5288 bfbd
00000220: 26d7 6dbd c7e4 0d3d 5aa2 dfbd 0d3a af3d
00000230: c4dc dfbd abb0 59bd ab8d 173d fff7 353e
00000240: 1f8f 603d 60a6 023b e630 c23b 8df0 c43d
00000250: 0381 c53d ef76 c53d 30eb 143e 4ab0 c33d
00000260: 726d 163e 4750 323e d819 1e3e 5194 2c3e
00000270: 9ecc 68bd cf72 c53d cd94 b6bd adae 38bd
00000280: 8a59 053d 7b7c 17be d2f9 2a3e ac97 75bd
00000290: 538c edbd bc55 3fbb b03c 653d 2d5e b33d
000002a0: 63e3 7d3d 66ba 8c3d f0cb da3d 175f c1bc
000002b0: 9ade a83c a78c 953c c861 43bd aed5 c33d
000002c0: b981 18be 98b5 d03d d9eb f7bc 04ca 9c3c
000002d0: 44b8 55bd dc7d e03d edf5 42bd 5e88 283d
000002e0: 90de 013e 1cba a93d a104 03be 7cc6 0a3d
000002f0: a405 f43d 5a6c 72bd c346 003e 94ca 00be
00000300: 94a1 2abe b7e2 1bbe b503 d93c 78d6 363d
00000310: 8006 f03d 57a6 16be 2e5b 9cbb 2c21 313e
00000320: e21b f6bd aa5e 04bd a057 80bd 596a 5f3d
00000330: 82a1 fbbd 5842 0b3e 01d1 14bd c333 ae3c
00000340: 2f9f e03d 3303 e43b 4b85 ec3d f1b9 7d3d
00000350: 4dc9 103e 19bc fa3d 6046 88bd 4228 8f3d
00000360: 5468 1a3c ee30 fb3d 73a9 3abc 914d 943d
00000370: 6c7d 1dbd 1c43 4f3d b9b4 cbbd 1b7d 9b3c
00000380: 57c5 823d ac2a b5bd d55e 91bd 9a99 1fbd
00000390: cad6 783d c2b7 f43d 68e0 13bd 5da4 0a3e
000003a0: 10b9 293e e047 273d 08dc 423e c1a7 143e
000003b0: 2ab5 143e 5c62 823d e0f6 8d3d 50cd eb3d
000003c0: e643 ce3d d7a9 303c 5f51 313d 9be3 b3bb
000003d0: 8090 a9bd bbf6 fcbd d9d9 4abc 816f 80bd
000003e0: d3ac 0c3e efff adbd 7ec9 b2bd db6f 0dbd
000003f0: 9e29 ee3d e03c 063d 9ba7 5d3d d82c 093d

fc_layers.1.bias f4 [128]
-0.0025814525 0.0005257187 0.00089536654 0.003292819 -0.0071908915 0.007959181 0.00042755652 0.0080742175
-0.0060275276 -0.008223484 0.007792213 0.0013182175 -0.005000395 0.0 0.011604204 -0.00599321
-0.009471403 -0.0035381136 -0.00091149297 0.010680403 -0.017407538 -0.004602202 0.0 0.011097715
0.010936281 0.018934034 -0.013781625 0.0 0.0 -0.0074121365 -9.085238e-05 -0.001589905
-0.0024989916 0.008916048 0.005685849 0.00066838186 0.008884402 0.0 -0.001811724 0.010441381
-0.0074036103 0.002917353 -0.0101706 0.003571533 -0.013963095 -0.0001170106 0.0020597335 0.008187484
-0.0044290707 -0.0040409574 0.0061870986 0.016194114 -0.0038852878 0.010951246 0.0102549475 -0.015831867
-0.005583415 0.0060606906 -0.005248918 0.010828018 -0.0078103556 0.005413746 -0.0054637333 0.0017340073
-0.008140358 -0.005090585 0.015234538 0.0017757649 0.0003603071 -0.0037684839 0.0175296 -0.016421163
0.007617088 -0.00271332 -0.005993554 -0.006160451 0.0036259752 -0.00012893227 -0.006467322 -0.008055855
0.009556421 0.0 -0.007355691 0.0033834619 0.01187202 -0.010562412 -0.009500254 -0.0064606783
-0.01170372 0.0022908242 -0.0047954866 0.004894364 -0.009050426 0.00048493553 -0.012591797 -0.0055929725
0.0152922245 -0.00599368 -0.010153382 -0.009596631 0.0 0.004333141 0.016103145 -0.0035700782
-0.00017820281 0.01659496 -0.008031642 -0.00679502 -0.005050192 -0.0042104493 -0.006266851 -0.0041278442
-0.0016082268 0.0015481276 -1.997118e-05 0.01892755 -0.00901848 0.0070526977 -0.010447064 0.011971486
0.0 0.0 0.002900136 0.004010165 0.00456009 -0.0037093477 -0.0026622026 -0.0001322819
00000000: 962d 29bb 62d0 093a 08b7 6a3a 56cc 573b
00000010: 92a1 ebbb 3a67 023c aa29 e039 b949 043c
00000020: 9182 c5bb cbbb 06bc d255 ff3b 0ac8 ac3a
00000030: 5ada a3bb 0000 0000 8f1f 3e3c b062 c4bb
00000040: f22d 1bbc b2df 67bb 42f1 6eba dbfc 2e3c
00000050: 419a 8ebc 12ce 96bb 0000 0000 31d3 353c
00000060: 162e 333c 8c1b 9b3c 53cc 61bc 0000 0000
00000070: 0000 0000 82e1 f2bb 0088 beb8 5c64 d0ba
00000080: 1fc6 23bb 9e14 123c 5c50 ba3b 5936 2f3a
00000090: e28f 113c 0000 0000 5f77 edba 5312 2b3c
000000a0: fc99 f2bb 1031 3f3b 97a2 26bc 6110 6a3b
000000b0: 77c5 64bc 9663 f5b8 98fc 063b cc24 063c
000000c0: bd21 91bb 026a 84bb 25bd ca3b 85a9 843c
000000d0: 50a0 7ebb db6c 333c 5e04 283c d5b1 81bc
000000e0: 14f5 b6bb c298 c63b 1eff abbb 0068 313c
000000f0: 03ee ffbb cb65 b13b 1e09 b3bb a147 e33a
00000100: 235f 05bc ecce a6bb 499a 793c c8c0 e83a
00000110: 9ae7 bc39 abf8 76bb 3c9a 8f3c ad85 86bc
00000120: c498 f93b f5d1 31bb 9365 c4bb 9cdd c9bb
00000130: c5a1 6d3b fe31 07b9 d4eb d3bb b4fc 03bc
00000140: 8992 1c3c 0000 0000 0208 f1bb 12bd 5d3b
00000150: dc82 423c f80d 2dbc f4a6 1bbc 19b4 d3bb
00000160: f6c0 3fbc a721 163b 7523 9dbb e760 a03b
00000170: 3d48 14bc f23e fe39 d34d 4ebc 4145 b7bb
00000180: 3d8c 7a3c a266 c4bb 5f5a 26bc 303b 1dbc
00000190: 0000 0000 05fd 8d3b beea 833c f9f7 69bb
000001a0: f4db 3ab9 27f2 873c 2697 03bc c2a8 debb
000001b0: 157c a5bb cff7 89bb 285a cdbb de42 87bb
000001c0: 23cb d2ba 8bea ca3a c887 a7b7 f30d 9b3c
000001d0: 3fc2 13bc 511a e73b 2a2a 2bbc 0d24 443c
000001e0: 0000 0000 0000 0000 3510 3e3b b467 833b
000001f0: cf6c 953b 8718 73bb 5978 2ebb 27b5 0ab9

fc_layers.2.weight f4 [128, 128]
-0.14992887 0.056726433 -0.15102565 -0.020054802 -0.056778178 -0.038912382 -0.048607085 0.07096189
0.064052284 0.1275405 0.015678423 -0.0755992 0.030607123 -0.13286409 -0.00023280144 0.029535
0.1407846 -0.014121909 -0.079444155 -0.12834845 0.008661558 -0.028720507 -0.015929386 0.0035565724
0.09398822 -0.12051618 -0.04011583 -0.15118784 -0.036196887 -0.03192068 0.032610852 0.0043080435
-0.016950056 -0.13296293 -0.13867383 -0.11238286 0.14395605 -0.14231294 -0.00094773876 0.08033326
0.09719991 -0.13371587 -0.14160544 0.11325363 -0.09576202 -0.019375602 0.00010939213 -0.09285845
-0.06810906 -0.0066085975 0.03676794 0.12360133 0.11616896 0.059127428 -0.06958867 0.09892683
0.057437714 0.09275386 -0.09606185 0.098220676 -0.15812707 0.06558344 0.107944354 0.061386302
0.10087867 -0.04171551 -0.14596878 0.10629633 -0.08476825 0.07397891 -0.065449536 0.1111871
-0.11419888 -0.08988797 0.061858542 0.084323086 0.102079116 -0.037176766 0.09592447 0.14007145
-0.15249169 0.025330335 0.08358638 0.045079634 0.01452988 0.122467235 -0.15193667 -0.13195655
0.13658838 0.100172155 -0.02774433 0.07315668 0.13444129 0.10527277 0.09150517 -0.015070089
-0.09622814 -0.08120322 -0.12259883 0.078785665 -0.014576286 -0.036382947 0.09882058 0.07042155
-0.08165432 0.048834078 0.037577495 -0.0006360101 0.012250029 0.048346743 -0.0287911 -0.11731601
0.098765135 -0.062585875 -0.12476272 -0.11723258 0.090596385 -0.030819796 0.013954135 0.016623994
0.06993978 -0.08330653 -0.1520183 -0.13270491 0.01780197 0.051807478 0.08624491 0.009175408
0.10331489 0.058663793 -0.1460568 -0.13585688 0.04560659 -0.14443572 -0.048549492 -0.052881476
0.04882609 -0.14402719 -0.15951736 -0.08313059 0.06524066 0.03362021 -0.104689024 -0.028750641
0.029584166 -0.12907124 0.028985878 -0.051253054 0.025176296 0.033017166 0.13875411 0.057294697
0.09827864 -0.09093356 -0.15445809 -0.120408334 -0.12721585 0.012063619 -0.003700072 0.02299116
0.08582089 -0.06468113 -0.06415411 -0.03783572 0.1370056 -0.06753496 -0.017453207 0.10934743
0.014444138 -0.025340967 0.075531565 0.046995275 -0.15771401 -0.014374868 0.008705694 0.045353714
-0.042033523 -0.055357184 -0.021960553 -0.06103165 0.0061156913 0.0991037 0.08573414 0.0933119
0.04664201 -0.026818976 -0.07600713 -0.04417402 0.11251796 0.029405845 -0.111366734 0.012990928
0.11722261 0.071394205 0.037873868 -0.10184044 0.07229706 0.13334772 0.004168 -0.084864594
-0.084475376 0.04500923 -0.15843153 -0.09182836 0.056665935 -0.11715903 0.11808755 0.015005223
0.11108226 -0.09558572 -0.07704033 -0.068452545 -0.020514846 0.14411494 -0.05961951 0.08586485
0.020373331 -0.1222033 -0.13717204 -0.05608209 0.008440845 0.040001392 -0.1571976 0.04907406
-0.011347425 -0.039372478 0.08375556 -0.0005574981 -0.036126897 0.08090506 0.13412641 0.06691665
-0.03368375 0.073534936 0.076938234 0.092789285 -0.0071538244 0.11257871 0.123787574 -0.06975516
-0.10189479 -0.07687532 -0.13751723 -0.029889517 -0.04770584 0.046298847 0.054228213 0.05236703
0.09675652 0.03611867 -0.14688721 0.13401698 0.015381493 0.08206882 0.033485226 0.03949777
00000000: f486 19be fa59 683d 78a6 1abe f849 a4bc
00000010: 3c90 68bd 9762 1fbd 3918 47bd 7854 913d
00000020: d82d 833d fa99 023e 0970 803c c1d3 9abd
00000030: cabb fa3c 860d 08be 291c 74b9 62f3 f13c
00000040: d729 103e 945f 67bc 9eb3 a2bd c76d 03be
00000050: 35e9 0d3c 4547 ebbc 587e 82bc 6215 693b
00000060: e57c c03d 30d1 f6bd 7f50 24bd fcd0 1abe
00000070: 3043 14bd 42bf 02bd f592 053d 7d2a 8d3b
00000080: d8da 8abc 6f27 08be 8300 0ebe fc28 e6bd
00000090: 3769 133e 7cba 11be ac71 78ba c485 a43d
000000a0: bf10 c73d d0ec 08be 0401 11be 85f1 e73d
000000b0: e11e c4bd 95b9 9ebc 7469 e538 922c bebd
000000c0: c37c 8bbd ef8c d8bb fb99 163d b222 fd3d
000000d0: fee9 ed3d 9a2f 723d 8184 8ebd 269a ca3d
000000e0: cf43 6b3d bcf5 bd3d 13bc c4bd ec27 c93d
000000f0: 10ec 21be 9c50 863d ee11 dd3d 3470 7b3d
00000100: 7a99 ce3d e2dd 2abd d778 15be e4b1 d93d
00000110: fa9a adbd 4182 973d 680a 86bd 10b6 e33d
00000120: 1ae1 e9bd 2f17 b8bd 625f 7d3d 95b1 ac3d
00000130: db0e d13d aa46 18bd 0c74 c43d e46e 0f3e
00000140: c826 1cbe 9081 cf3c 562f ab3d 6ca5 383d
00000150: bc0e 6e3c 1ad0 fa3d 4995 1bbe 9e1f 07be
00000160: d3dd 0b3e 0f27 cd3d 1448 e3bc 2bd3 953d
00000170: faaa 093e 4099 d73d 1067 bb3d 89e8 76bc
00000180: 4213 c5bd e04d a6bd 1815 fbbd 615a a13d
00000190: 60d1 6ebc 4906 15bd 7262 ca3d 2c39 903d
000001a0: 613a a7bd 3e06 483d dcea 193d eab9 26ba
000001b0: 58b4 483c 3c07 463d 50db ebbc 6043 f0bd
000001c0: 6045 ca3d 062d 80bd 9983 ffbd a317 f0bd
000001d0: 998a b93d cc79 fcbc e29f 643c 0b2f 883c
000001e0: 963c 8f3d 9d9c aabd afaa 1bbe cce3 07be
000001f0: 70d5 913c 1434 543d 2ca1 b03d 7354 163c
00000200: c296 d33d 7249 703d ea8f 15be 111e 0bbe
00000210: facd 3a3d f5e6 13be d5db 46bd 3f9a 58bd
00000220: defd 473d dd7b 13be 8558 23be 5f40 aabd
00000230: e59c 853d 58b5 093d 3367 d6bd 7786 ebbc
00000240: 7e5a f23c 402b 04be cb73 ed3c b9ee 51bd
00000250: 853e ce3c 023d 073d 8f15 0e3e d8ad 6a3d
00000260: 5046 c93d 603b babd 432a 1ebe a598 f6bd
00000270: df44 02be 7ca6 453c e87c 72bb f557 bc3c
00000280: ddc2 af3d 8a77 84bd 3b63 83bd a1f9 1abd
00000290: 324b 0c3e c54f 8abd 07fa 8ebc 8cf1 df3d
000002a0: 1ba7 6c3c dc97 cfbc 4bb0 9a3d 1e7e 403d
000002b0: c87f 21be 9184 6bbc 54a2 0e3c d1c4 393d
000002c0: 582b 2cbd 37be 62bd 9ee6 b3bc 53fc 79bd
000002d0: 2366 c83b e1f6 ca3d 6195 af3d 4f1a bf3d
000002e0: b10b 3f3d 78b3 dbbc a0a9 9bbd d1ef 34bd
000002f0: d16f e63d 87e4 f03c 3e14 e4bd e7d7 543c
00000300: 6812 f03d 2037 923d a121 1b3d b891 d0bd
00000310: 7b10 943d 4e8c 083e b893 883b 7dcd adbd
00000320: 6d01 adbd 995b 383d e03b 22be 8210 bcbd
00000330: 8a1a 683d 13f1 efbd e3d7 f13d 78d8 753c
00000340: 197f e33d 72c2 c3bd 52c7 9dbd d930 8cbd
00000350: c00e a8bc de92 133e 9633 74bd e9d9 af3d
00000360: f9e5 a63c b945 fabd d476 0cbe 55b6 65bd
00000370: 784b 0a3c 80d8 233d 68f8 20be e201 493d
00000380: 8dea 39bc 0945 21bd 0988 ab3d 1025 12ba
00000390: ccf9 13bd 8db1 a53d 6f58 093e 990b 893d
000003a0: f9f7 09bd 7c99 963d cb91 9d3d 4f08 be3d
000003b0: a16a eabb ab8f e63d 5784 fd3d cbdb 8ebd
000003c0: 37ae d0bd cf70 9dbd 51d1 0cbe dcda f4bc
000003d0: 3367 43bd dca3 3d3d 671e 5e3d d07e 563d
000003e0: 4828 c63d 2cf1 133d 9a69 16be bf3b 093e
000003f0: a802 7c3c b313 a83d ce27 093d 6ac8 213d

fc_layers.2.bias f4 [128]
-0.009714626 -0.00967164 0.0 0.0027873896 -0.011454137 0.004398196 -0.009794469 -0.005545643
-0.004317202 -0.011533536 -8.077086e-07 -0.0073815254 0.002475258 -0.00045859627 -0.0015256064 0.0
-0.004837436 0.0061877314 -0.0135140885 -0.01030405 -0.0104124 -0.0021737805 -0.013879936 -0.0031025205
0.0 0.0010164221 0.0 -0.0059936536 0.0057922374 -0.0069515295 0.0063970704 0.0
0.005023399 -0.0040655783 0.0 0.0034993873 0.0032901901 0.0015794837 -0.0037225161 0.018873747
0.010205618 -0.007498167 0.0 0.0 -0.015266436 -0.0055454024 0.0031058437 -0.0030277458
-0.005993689 -0.0010120294 0.01336195 0.001573781 -0.0059934407 -0.0078057856 -0.005178081 -0.0042544953
0.0031149648 -0.0074613946 -0.005957764 0.0017948914 -0.006238536 0.0 0.010360601 0.0013074625
0.0044217287 -0.008581799 -0.008566142 0.0013499315 -0.0016877016 0.00096241967 -0.0156042725 0.0
-0.005621515 -0.0022389747 -0.0049961833 -0.007029404 -0.007766767 0.0 -0.00599369 -0.0054652877
-0.00041941088 -0.012781128 -0.0011861279 0.005261352 -0.009217667 -0.01060138 0.002778881 0.0042712153
0.0016482681 -0.005577255 -0.014730711 -0.006634763 0.0020485623 -0.009994942 -0.014512595 0.0048463475
-0.0059936824 0.004404224 0.0041122423 -0.00880806 0.00037422995 -0.010263738 -0.007466587 -0.00040997355
0.008639565 0.0087888595 -0.011878302 0.0067472933 -0.0047239265 0.0 -2.5286536e-05 -0.00014892613
-0.010842846 0.0033416753 -0.0006592255 0.011819807 0.00086311053 -0.016451675 -0.0055456297 0.006551349
-0.002989947 0.0017720722 0.006260351 -0.006649417 -0.005467912 0.021666372 0.00043819577 0.0024170605
00000000: 182a 1fbc cc75 1ebc 0000 0000 a3ac 363b
00000010: 22aa 3bbc be1e 903b fb78 20bc 3ab8 b5bb
00000020: 5177 8dbb 28f7 3cbc 50d1 58b5 b9e0 f1bb
00000030: f037 223b c06f f0b9 dbf6 c7ba 0000 0000
00000040: 5b83 9ebb 74c2 ca3b 326a 5dbc 51d2 28bc
00000050: c598 2abc fc75 0ebb ac68 63bc a853 4bbb
00000060: 0000 0000 7739 853a 0000 0000 6966 c4bb
00000070: cfcc bd3b a8c9 e3bb 849e d13b 0000 0000
00000080: 539b a43b 8b38 85bb 0000 0000 fa55 653b
00000090: 3ba0 573b ae06 cf3a 75f5 73bb 1e9d 9a3c
000000a0: 7735 273c 2fb3 f5bb 0000 0000 0000 0000
000000b0: 1320 7abc 35b6 b5bb 698b 4b3b 256d 46bb
000000c0: b566 c4bb 12a6 84ba 15ec 5a3c 5447 ce3a
000000d0: a064 c4bb adc7 ffbb e4ac a9bb 4b69 8bbb
000000e0: 7024 4c3b b77e f4bb 5939 c3bb 9042 eb3a
000000f0: a26c ccbb 0000 0000 83bf 293c 295f ab3a
00000100: 26e4 903b ad9a 0cbc 0159 0cbc 2ff0 b03a
00000110: de35 ddba e44a 7c3a 10a9 7fbc 0000 0000
00000120: b034 b8bb c3bb 12bb 06b7 a3bb ea56 e6bb
00000130: 5d80 febb 0000 0000 b766 c4bb 2816 b3bb
00000140: 60e4 dbb9 f067 51bc d977 9bba 6b67 ac3b
00000150: b305 17bc 69b1 2dbc e31d 363b 8df5 8b3b
00000160: b30a d83a 68c1 b6bb 1459 71bc 6d68 d9bb
00000170: 2c41 063b d3c1 23bc 3cc6 6dbc 1cce 9e3b
00000180: a766 c4bb 4f51 903b fdbf 863b ae4f 10bc
00000190: 4b34 c439 3d29 28bc 45aa f4bb b8f1 d6b9
000001a0: f68c 0d3c 26ff 0f3c 369d 42bc 6618 dd3b
000001b0: 2bcb 9abb 0000 0000 6c1e d4b7 0e29 1cb9
000001c0: 31a6 31bc 0200 5b3b e0cf 2cba dda7 413c
000001d0: 5e42 623a aac5 86bc 1db8 b5bb b3ac d63b
000001e0: fdf2 43bb e044 e83a a123 cd3b 5ae3 d9bb
000001f0: 2c2c b3bb ad7d b13c a4bd e539 8c67 1e3b

fc_layers.3.weight f4 [128, 128]
-0.0336999 -0.10980346 0.012493342 -0.1084469 0.03930271 0.12999561 0.08987625 -0.11537914
0.06653175 -0.13263284 0.11281042 -0.09465568 -0.14490663 -0.05746148 0.10549391 0.13483505
-0.07525853 0.11345462 -0.054822855 -0.032076824 -0.019654246 0.07940683 -0.09571485 0.037238564
-0.03634149 -0.12949179 0.0026571304 -0.1224265 0.06814309 -0.07429087 -0.10765122 -0.08612395
-0.12629044 -0.033943884 0.11448796 -0.06712621 0.08825639 -0.08056014 0.14260824 -0.04740277
0.08046599 0.045725986 0.07342099 -0.04150983 -0.08338196 0.016369363 0.15587191 -0.05544551
0.13290532 -0.03163514 0.12552835 -0.093781486 -0.07718241 0.046181504 0.111937165 0.08989739
0.048784394 0.006516692 0.04467978 0.07314747 0.16071585 -0.07387687 -0.1121287 0.0019183878
-0.11476784 0.024548085 0.024776338 0.069398575 0.08225782 -0.124357045 0.0073458403 -0.10820347
0.102751225 -0.12272342 -0.03342372 -0.14144467 0.064928785 0.0076307654 0.00012682378 0.15933596
0.008580334 0.02990512 -0.051023576 0.13089857 0.13321418 -0.057899058 0.12534934 0.04267419
-0.049175296 -0.07650622 0.11223658 -0.09885139 -0.061187454 -0.09160182 -0.1314116 -0.14040205
0.0960484 0.08349046 0.09873825 0.10304283 -0.016879 0.11409224 0.083587065 0.0045164484
0.054960653 -0.07217228 -0.058330163 0.013546126 0.13454702 0.011235595 -0.06286478 -0.09439885
0.10468173 0.072725125 -0.07269599 -0.079253346 -0.1386639 -0.004704379 -0.083488025 0.11043965
0.14699253 -0.114364944 -0.123670675 0.1480172 -0.083000034 -0.1407688 0.053995155 0.043193027
0.11042757 0.07839407 -0.033730768 -0.054174684 0.11488624 -0.11059592 -0.057844784 -0.014986932
0.094209455 0.0912882 0.06857932 0.10386939 0.049315803 -0.1540776 -0.03489861 0.11816932
-0.017444339 -0.12542047 0.10014749 -0.115243755 0.055535294 0.13653721 0.04276492 -0.045181252
0.14139049 -0.118847385 -0.119599596 -0.0748918 -0.038423695 0.1174727 0.030551089 0.09941597
-0.048702378 0.032392506 -0.12464125 -0.020627012 0.04738072 0.09681249 0.014155995 -0.06903735
-0.12721421 0.058220167 -0.13631195 0.053204432 0.016600084 0.116284505 0.066306494 -0.06962364
-0.073184885 0.015821666 -0.14850791 -0.027544333 0.08750537 0.12395652 0.082945734 0.08275195
0.032935645 -0.042276427 0.07935461 -0.020838454 0.012947902 0.13460611 0.057544723 0.1039158
0.06307575 -0.08475912 0.14671461 -0.052320488 0.13064107 -0.048911113 -0.14437422 -0.016401201
0.09505136 0.1348595 0.11140114 -0.060971152 0.056117274 -0.054124236 -0.072233394 -0.12740779
0.048397772 -0.011178635 0.11822448 -0.1370622 -0.10148211 0.03146577 -0.050482277 -0.08342763
-0.02372981 0.011659247 0.075639054 0.03581937 0.0142415175 0.14315411 -0.057879947 -0.12361523
-0.12457624 -0.002632961 -0.0071398686 0.1182512 -0.033277888 0.07562393 0.095757835 -0.15153956
0.10261552 0.02830414 0.018305792 -0.15305112 0.10711143 -0.058565877 0.12555034 0.092930794
-0.122414336 0.13816947 -0.019868886 -0.08375043 -0.07365151 0.06869467 0.07427537 -0.008445656
-0.07392598 0.08274349 -0.14560544 -0.002918648 0.047373567 -0.09490805 0.048901346 0.048415896
00000000: e808 0abd a3e0 e0bd e0b0 4c3c 6919 debd
00000010: e1fb 203d 921d 053e 0a11 b83d e64b ecbd
00000020: cc41 883d e7d0 07be 2609 e73d d6da c1bd
00000030: 6762 14be bb5c 6bbd 310d d83d 3312 0a3e
00000040: 2521 9abd e55a e83d ee8d 60bd fd62 03bd
00000050: f101 a1bc 0ca0 a23d 2606 c4bd 7787 183d
00000060: d0da 14bd 7f99 04be 4023 2e3b bfba fabd
00000070: 9b8e 8b3d d025 98bd 3e78 dcbd c161 b0bd
00000080: 4852 01be be08 0bbd aa78 ea3d 7779 89bd
00000090: c4bf b43d b7fc a4bd e507 123e 6829 42bd
000000a0: 5acb a43d 2c4b 3b3d be5d 963d 3606 2abd
000000b0: 29c4 aabd 0b19 863c e39c 1f3e d51a 63bd
000000c0: 5518 083e d993 01bd 818a 003e 8210 c0bd
000000d0: d011 9ebd d128 3d3d 503f e53d 1f1c b83d
000000e0: 25d2 473d fa89 d53b 2502 373d 57ce 953d
000000f0: b292 243e c24c 97bd bba3 e5bd 6a72 fb3a
00000100: 670b ebbd 1119 c93c bff7 ca3c d720 8e3d
00000110: ca76 a83d e8ae febd 60b5 f03b c899 ddbd
00000120: 3c6f d23d 6b56 fbbd 50e7 08bd dfd6 10be
00000130: 62f9 843d 800b fa3b 00fc 0439 f728 233e
00000140: 8794 0c3c 95fb f43c 19fe 50bd 460a 063e
00000150: 4c69 083e 9027 6dbd 945b 003e 22cb 2e3d
00000160: 096c 49bd 4baf 9cbd 4bdc e53d 9972 cabd
00000170: b29f 7abd bc99 bbbd c390 06be 8ec5 0fbe
00000180: 06b5 c43d 0cfd aa3d 4837 ca3d 1f08 d33d
00000190: d445 8abc 31a9 e93d b22f ab3d b7fe 933b
000001a0: 6c1e 613d 0fcf 93bd 9ceb 6ebd 92f0 5d3c
000001b0: b2c6 093e 8015 383c 40bf 80bd 2f54 c1bd
000001c0: 6063 d63d e9f0 943d a3e1 94bd 944f a2bd
000001d0: e9fd 0dbe 3127 9abb c5fb aabd 2f2e e23d
000001e0: 3685 163e 2b38 eabd 0d47 fdbd d291 173e
000001f0: ecfb a9bd b225 10be 062a 5d3d 2ceb 303d
00000200: da27 e23d 128d a03d 4629 0abd 46e6 5dbd
00000210: 7a49 eb3d 1d80 e2bd a7ee 6cbd c08b 75bc
00000220: e3f0 c03d 4ff5 ba3d 5173 8c3d 7ab9 d43d
00000230: 5eff 493d 85c6 1dbe d8f1 0ebd c202 f23d
00000240: 6ee7 8ebc 396e 00be 211a cd3d eb04 ecbd
00000250: fa78 633d 69d0 0b3e 452a 2f3d fa0f 39bd
00000260: abc8 103e 4266 f3bd a2f0 f4bd df60 99bd
00000270: 2a62 1dbd 8795 f03d 4746 fa3c 9a9a cb3d
00000280: 257c 47bd 01ae 043d e943 ffbd fbf9 a8bc
00000290: 4912 423d a045 c63d 8cee 673c 7463 8dbd
000002a0: 7144 02be 4578 6e3d 5c95 0bbe e4ec 593d
000002b0: e6fc 873c 9226 ee3d b3cb 873d d796 8ebd
000002c0: f5e1 95bd 709c 813c 7512 18be a7a4 e1bc
000002d0: 0436 b33d eadc fd3d 74df a93d db79 a93d
000002e0: 87e7 063d 0c2a 2dbd ab84 a23d 68b5 aabc
000002f0: 7023 543c 2fd6 093e 04b4 6b3d cfd1 d43d
00000300: dc2d 813d 3196 adbd 5b3c 163e 024e 56bd
00000310: c6c6 053e 0557 48bd d6d6 13be d05b 86bc
00000320: 4aaa c23d 9c18 0a3e 4826 e43d e3bc 79bd
00000330: 3adb 653d 60b1 5dbd 1aef 93bd 3077 02be
00000340: be3c 463d 9826 37bc ad1f f23d 095a 0cbe
00000350: dad5 cfbd 40e2 003d 81c6 4ebd 1bdc aabd
00000360: 0565 c2bc 6d06 3f3c a6e8 9a3d 55b7 123d
00000370: 4155 693c fe96 123e 8613 6dbd fb29 fdbd
00000380: d421 ffbd c18d 2cbb 8ff5 e9bb af2d f23d
00000390: 654e 08bd b8e0 9a3d af1c c43d 302d 1bbe
000003a0: 1628 d23d 15de e73c 07f6 953c 6fb9 1cbe
000003b0: 3d5d db3d c6e2 6fbd 4590 003e 8052 be3d
000003c0: 5eb4 fabd 4c7c 0d3e 13c4 a2bc 5885 abbd
000003d0: 9ad6 96bd cbaf 8c3d af1d 983d a65f 0abc
000003e0: 8166 97bd 6b75 a93d 9819 15be ca46 3fbb
000003f0: c90a 423d 275f c2bd c74c 483d bf4f 463d

fc_layers.3.bias f4 [128]
-0.0030694432 -0.014737243 -0.0052166753 -0.0113318125 -0.01238566 -0.021775046 0.007103966 -0.0015666557
-0.0024554874 -0.002048185 -0.0030966562 0.013472448 0.00070649234 0.0027425685 0.0029744261 0.018608946
0.0028183372 -0.007347935 0.0032188017 0.004098461 -0.013077679 -0.005993686 0.0027011577 -0.0019999936
-0.0020333494 -0.0061390577 0.012695443 0.0070074005 0.0034473492 0.0033542474 0.0 -0.011293655
0.0028207558 -0.008359394 0.00032464927 0.0 -0.0042623086 -0.0059935553 0.0031031915 0.0
0.0041247853 0.014650993 -0.011461162 0.013134319 -0.001488754 0.0008731636 0.0059505147 0.008362323
0.0026981249 -0.0059936773 -0.0033396976 -0.005993345 0.002449651 -0.007631018 0.006940218 0.0008169623
-0.007206562 0.005457471 -0.011432539 -0.0055755083 0.0064701005 0.0073942137 0.0 0.0030935465
-0.0057767085 -0.00012862636 -0.0115663 -0.007942395 -0.0059936936 0.0 -0.0055447924 0.0
-0.008104561 -0.0065514417 -0.0042471355 -0.009839046 0.00019546109 -0.009756053 -0.00070031703 0.0
-0.011836594 -0.005993671 0.0023442 0.0054734764 0.0062122745 -0.0062539536 -0.013589173 0.0020755064
0.0 -0.0058874423 0.008741624 -0.0038538 0.0012646938 -0.007919232 0.0027791925 -0.005182486
-0.011954026 0.005538817 -0.00010484482 0.0002491613 0.0 -0.010049029 -0.0027942425 0.007824399
-0.007372339 0.0033776474 0.0045327735 0.002497089 0.002827078 0.012165627 -0.004928684 0.0062652845
-0.0054457397 -0.015006767 0.0045806337 -0.008685793 0.0 -0.0026082606 0.0027256238 -0.008749763
0.005933712 0.0041676746 -0.005993484 0.0083986195 -0.008089066 -0.0025283638 0.0061152624 -0.0033447014
00000000: b628 49bb 7a74 71bc a5f0 aabb 11a9 39bc
00000010: 39ed 4abc 9561 b2bc 63c8 e83b 3e58 cdba
00000020: 3eec 20bb d83a 06bb 45f1 4abb 8bbb 5c3c
00000030: e633 393a aabc 333b 97ee 423b ca71 983c
00000040: dab3 383b f2c6 f0bb 88f2 523b 624c 863b
00000050: c343 56bc af66 c4bb e805 313b 5312 03bb
00000060: f141 05bb 262a c9bb 8c00 503c 569e e53b
00000070: ecec 613b efd2 5b3b 0000 0000 0609 39bc
00000080: 6edc 383b d7f5 08bc b035 aa39 0000 0000
00000090: d6aa 8bbb 9665 c4bb ea5e 4b3b 0000 0000
000000a0: 3529 873b b80a 703c 99c7 3bbc 5431 573c
000000b0: 4b22 c3ba 04e5 643a 89fc c23b 2002 093c
000000c0: 06d3 303b 9c66 c4bb d4de 5abb d263 c4bb
000000d0: 538a 203b 9e0d fabb c56a e33b 6929 563a
000000e0: 0625 ecbb 96d4 b23b 8b4f 3bbc c1b2 b6bb
000000f0: 2303 d43b 294b f23b 0000 0000 19bd 4a3b
00000100: 8b4a bdbb e0df 06b9 9480 3dbc d220 02bc
00000110: bf66 c4bb 0000 0000 17b1 b5bb 0000 0000
00000120: fec8 04bc 7aad d6bb 8e2b 8bbb f333 21bc
00000130: b0f4 4c39 dad7 1fbc 7b95 37ba 0000 0000
00000140: 46ee 41bc 8e66 c4bb 26a1 193b d95a b33b
00000150: 5690 cb3b f7ed ccbb 1fa5 5ebc 3805 083b
00000160: 0000 0000 72eb c0bb 0739 0f3c 0990 7cbb
00000170: 15c4 a53a abbf 01bc 1d23 363b d8d1 a9bb
00000180: d2da 43bc f77e b53b 22e0 dbb8 dda1 8239
00000190: 0000 0000 afa4 24bc 9c1f 37bb e831 003c
000001a0: a993 f1bb 855b 5d3b a987 943b 34a6 233b
000001b0: 8046 393b 5752 473c cc80 a1bb 044d cd3b
000001c0: 2d72 b2bb f1de 75bc 2419 963b db4e 0ebc
000001d0: 0000 0000 5aef 2abb 61a0 323b 2a5b 0fbc
000001e0: 956f c23b fd90 883b fd64 c4bb 5d9a 093c
000001f0: 0088 04bc e8b2 25bb 8a62 c83b c732 5bbb

fc_layers.4.weight f4 [128, 128]
-0.05615091 0.14725131 0.1494167 0.122917764 -0.017892748 0.15914951 -0.05717819 0.0032415767
0.023894368 0.14380185 0.0052825543 0.063385025 -0.01582196 0.09880024 0.0740088 -0.06626684
0.15775986 0.00025504484 -0.072660774 -0.04454347 -0.08959641 0.12670694 -0.008783903 0.13384743
-0.026760865 -0.15356249 -0.091283016 -0.09763428 0.06861992 -0.101664476 0.0981739 0.14512916
-0.12641127 0.09478504 0.043717477 0.1514102 0.051246982 0.04592357 0.06456117 -0.03338413
0.106702864 -0.085982256 0.15608354 0.025435604 -0.104196206 0.11775181 -0.017541384 -0.12321848
-0.08039495 -0.13512518 -0.023303274 -0.015214094 0.13499153 0.028270237 -0.018011913 0.028359959
0.019554168 0.001060154 -0.108296625 -0.08157675 -0.017464615 -0.052995685 -0.147714 0.089892976
-0.10398793 0.04998536 -0.1206737 -0.087585546 -0.086982 -0.12546533 0.10874362 0.06771965
0.0044408864 0.09611661 -0.16782752 -0.11522213 0.13617867 -0.058980606 -0.074756585 -0.012215689
-0.12696624 0.122725055 -0.13256551 0.09484663 0.11193546 -0.088052206 -0.082327306 -0.1374245
0.03090088 0.0048085456 0.13209003 0.06710222 -0.090091884 0.0032982363 -0.065323085 -0.06572794
0.094816074 -0.093485765 0.12565859 -0.13175526 0.025010556 0.008546 -0.002932921 0.16054904
-0.074687235 -0.03267428 0.05865251 0.13726674 -0.03858325 0.005684232 -0.11559595 0.13099621
0.0049135988 0.12989882 0.062360026 0.14752162 0.09392555 -0.06455465 0.10383163 -0.132009
-0.13012868 0.069545604 -0.04435963 -0.06576549 0.13534981 -0.15353747 -0.05499486 0.13350737
-0.13206738 -0.12632193 -0.14276713 0.114378944 0.12786986 0.098255925 -0.13379152 -0.074651375
-0.11922841 -0.075169176 -0.006464209 0.059396245 0.0637591 -0.1551322 -0.11524682 -0.06245005
-0.03937129 -0.1230764 -0.13732658 -0.14936219 0.03580432 0.024416583 0.06883447 0.072530605
0.064091414 -0.02896858 -0.09751494 0.051435407 0.03444545 0.0149668995 0.11114667 -0.1066066
0.009560081 0.098751195 0.00047037986 0.024982333 0.04011504 -0.033924438 -0.06451916 0.007349491
-0.015926242 -0.014885187 0.07418164 -0.13983163 -0.13183367 0.043765157 0.03336658 -0.058510087
-0.08398427 -0.035183407 0.1413908 0.039383993 0.0439291 0.10436086 0.04101346 -0.021450266
-0.10998681 -0.124597885 0.12614726 -0.030718695 -0.12838747 -0.046069473 0.00982669 -0.116973184
-0.040584616 0.13811831 0.1224924 0.124434605 0.13188063 0.0436828 -0.04306437 0.043578133
0.12664351 -0.029012948 0.08290565 0.08086149 0.13639216 0.102450565 0.09577465 0.067727014
0.054570284 -0.045585554 -0.05670245 -0.10587431 -0.13104258 -0.12682635 -0.08490882 0.13652998
-0.12781034 0.070504144 0.0011432599 -0.09562618 -0.14513148 -0.13542685 -0.1490896 0.14452457
-0.08059982 0.12855609 0.032708213 -0.14992256 -0.15193792 -0.018052962 -0.0013329685 -0.13830921
0.013838993 -0.014922346 0.041273646 0.064704195 0.007768004 -0.06670681 -0.08734095 0.12338285
-0.122268364 -0.03476364 -0.08955336 0.08278525 0.12784319 0.10620713 0.028401563 0.1194298
-0.058948178 0.054530635 0.050086364 -0.15274401 -0.053170033 0.05055119 0.05113027 -0.15550081
00000000: 7ffe 65bd 0cc9 163e b100 193e 4fbc fb3d
00000010: d093 92bc 17f8 223e ae33 6abd a270 543b
00000020: 1fbe c33c cb40 133e 4719 ad3b 02d0 813d
00000030: 0e9d 81bc c857 ca3d ed91 973d e9b6 87bd
00000040: cd8b 213e 8ab7 8539 2ccf 94bd 3773 36bd
00000050: 537e b7bd 77bf 013e 5cea 0fbc 4d0f 093e
00000060: 9a39 dbbc 7c3f 1dbe 97f2 babd 7bf4 c7bd
00000070: 9a88 8c3d 7735 d0bd 660f c93d bd9c 143e
00000080: f571 01be a91e c23d 1911 333d 470b 1b3e
00000090: 5be8 513d 5a1a 3c3d a638 843d ccbd 08bd
000000a0: 0887 da3d 7717 b0bd 5dd4 1f3e 545e d03c
000000b0: d264 d5bd dc27 f13d f3b2 8fbc f859 fcbd
000000c0: 1ca6 a4bd 415e 0abe 82e6 bebc 8944 79bc
000000d0: 383b 0a3e fc96 e73c b88d 93bc 2553 e83c
000000e0: 1030 a03c def4 8a3a 9fca ddbd b611 a7bd
000000f0: f411 8fbc 0112 59bd 5742 17be cf19 b83d
00000100: a0f7 d4bd 73bd 4c3d c623 f7bd 0d60 b3bd
00000110: 9e23 b2bd fc79 00be fab4 de3d 9ab0 8a3d
00000120: db84 913b c9d8 c43d fada 2bbe 95f9 ebbd
00000130: 6c72 0b3e a695 71bd fb19 99bd 5024 48bc
00000140: 7003 02be 4657 fb3d 41bf 07be f33e c23d
00000150: 6b3e e53d b754 b4bd 389b a8bd 02b9 0cbe
00000160: d823 fd3c 0191 9d3b 9c42 073e e46c 893d
00000170: 1882 b8bd 3927 583b 1cc8 85bd 5f9c 86bd
00000180: ee2e c23d 7775 bfbd a5ac 003e daea 06be
00000190: f0e2 cc3c 8604 0c3c 4036 40bb f866 243e
000001a0: 9ff5 98bd 77d5 05bd 9d3d 703d a78f 0c3e
000001b0: 7809 1ebd cb42 ba3b 92bd ecbd df23 063e
000001c0: 4102 a13b 3204 053e 3a6d 7f3d e80f 173e
000001d0: 0a5c c03d 3a35 84bd ada5 d43d 5e2d 07be
000001e0: 7440 05be ed6d 8e3d 72b2 35bd 0fb0 86bd
000001f0: 2499 0a3e ed38 1dbe 4a42 61bd 28b6 083e
00000200: ac3c 07be 895a 01be 8c31 12be 823f ea3d
00000210: 51f0 023e 673a c93d a500 09be d2e2 98bd
00000220: 062e f4bd 4cf2 99bd b7d1 d3bb 7a49 733d
00000230: 2294 823d fada 1ebe 8606 ecbd a0cb 7fbd
00000240: ca43 21bd 7b0f fcbd 579f 0cbe 67f2 18be
00000250: 8da7 123d 4905 c83c 16f9 8c3d ed8a 943d
00000260: 5c42 833d 844f edbc eab5 c7bd efad 523d
00000270: ac16 0d3d ba37 753c dea0 e33d 9054 dabd
00000280: e3a1 1c3c 113e ca3d 519d f639 c0a7 cc3c
00000290: ab4f 243d 5af4 0abd 9f22 84bd 00d4 f03b
000002a0: c077 82bc 00e1 73bc 8bec 973d 0630 0fbe
000002b0: 68ff 06be 1843 333d 65ab 083d 46a8 6fbd
000002c0: f2ff abbd 7a1c 10bd c0c8 103e 1c51 213d
000002d0: 00ef 333d 26bb d53d bbfd 273d 78b8 afbc
000002e0: c440 e1bd 2d2d ffbd bf2c 013e c6a5 fbbc
000002f0: 0178 03be 58b3 3cbd 2000 213c a38f efbd
00000300: 0e3c 26bd e36e 0d3e 4cdd fa3d 92d7 fe3d
00000310: b70b 073e bcec 323d 4464 30bd fc7e 323d
00000320: d6ae 013e 90ac edbc 70ca a93d b59a a53d
00000330: 63aa 0b3e 9ad1 d13d 8025 c43d 76b4 8a3d
00000340: 1785 5f3d ebb7 3abd d440 68bd a1d4 d8bd
00000350: 0730 06be c4de 01be ade4 adbd 84ce 0b3e
00000360: b7e0 02be 7a64 903d 70d9 953a a9d7 c3bd
00000370: 599d 14be 56ad 0abe f2aa 18be 40fe 133e
00000380: 8511 a5bd 35a4 033e 0cf9 053d 4d85 19be
00000390: 9d95 1bbe cee3 93bc 00b7 aeba eea0 0dbe
000003a0: f2bc 623c db7c 74bc 8e0e 293d a283 843d
000003b0: be8a fe3b 949d 88bd d0df b2bd 26b0 fc3d
000003c0: d667 fabd 5264 0ebd c167 b7bd 508b a93d
000003d0: 53e9 023e 2083 d93d 65aa e83c 9c97 f43d
000003e0: a573 71bd 845b 5f3d 5c27 4d3d ed68 1cbe
000003f0: d2c8 59bd c40e 4f3d f96d 513d 9b3b 1fbe
