fastAPI/forecast/models/enhanced_lstm_v4.pt (torch, 669984 bytes, 17 tensors)

bias f4 [3]
00000000: eb5f 4b3f 5b6e 853f 1e9e 843f
0.79443234 1.0424303 1.0360754

weight_ih_l0 f4 [512, 7]
00000000: 007c 993d 5d44 2f3e 7cfd a5bd 2762 823c
00000010: 2c78 343d c0e4 7cbd be10 6c3c a8ec 9f3d
00000020: cbd6 963c 450a 28bc fcfc 86bc 1da4 b3bd
00000030: 4c32 913c a7cb d43d 5ca3 7abd a537 7b3b
00000040: 00a3 6d3b b4cc ffbc f16a 0b3c c648 94bb
00000050: cf8d d3bc efa2 0f3d 511d 253c abb3 52bc
00000060: 1d72 e63d f240 143d 434c e43c a17a 15bd
00000070: a5eb febd 586e c9bc 99c9 823b e054 31bd
00000080: e8a9 47bc ffbe 32bd 9f8b fabc 25c1 5e3e
00000090: 90a2 cb3c 61e2 24bc de54 bf3d 358a f03d
000000a0: e913 023d e547 203d 2881 d13d 615e 953d
000000b0: b162 e03b 1a12 0a3d bca6 563d 7e11 89bc
000000c0: d30e 88bd 3c61 093e 4c92 f73b f1eb 97bb
000000d0: eb07 dc3c ab86 b73c 5c87 a4bc a7dc 183d
000000e0: 40b8 c3bd 4f0f 9cba cae0 40bb 4692 01bd
000000f0: 2c37 2abb e9f5 ddbc 3e91 28bd 29b0 87bd
00000100: e02b 02bd 62d3 e43b 1c5c 6ebd bfa0 c2ba
00000110: fe2b 9cbd cc49 0bbe 11a8 153d 0553 913d
00000120: ce4b afbc fcef 943e c70f 3c3d 19a8 333d
00000130: 7d78 ef3d ff41 c33d a405 603c 3ce7 d13a
00000140: 544b f4bc 21ba 9dbb afe2 4bbd 124d b7bc
00000150: 85bb 113c 50cc 5bbd fd8b 6c3d e971 73bd
00000160: 47dc 8e3c 6738 95bd c0e0 ce3b 4e15 01be
00000170: 4499 633b f6ea 8439 6bb2 5fbc 6df5 dbbb
00000180: 24f0 50bc 8df0 543c a3b8 f43c e17f 7b3d
00000190: 27f4 8bbc 877f 193e 3f6b dbbb 58e5 773d
000001a0: d8c0 c4bb 4bfa d7bd 77ba 7abc d5b0 5b3b
000001b0: 48b4 45bd 8c09 9bbc b264 2abd 31a5 58bd
000001c0: ea76 a1bd 8f73 ddbb 99f1 b2b9 7a61 51bc
000001d0: 3a9e 92bb 5cd7 35bc 55d4 0dbc 94b9 ccbd
000001e0: f9f1 86bc 6c18 fdbb 3404 b8bc fff0 a6bc
000001f0: f989 223b 5c76 a83d da9f 16bd 6397 cdbb
00000200: 0ff5 ccbb bd3c 84bc 0f76 11bc bb62 103c
00000210: b2fe f43a bee4 e03c 597f 31bd 3380 b53c
00000220: 1695 d13e e9e4 e9bb bf6f 223e 3893 4e3e
00000230: e086 a23d 30c8 32bc 9a63 b139 85c5 c1bc
00000240: 8e6a 75bb 9839 acbc b409 9ebd 326f 353d
00000250: f63d 3a3d 7d8b 7ebb 7ac4 bfbc 2ae7 eb3c
00000260: d3fd 0f3d 1109 943d fdc1 a8bd ea62 7b3b
00000270: 463b 1cbc 22e8 fe3b f9d1 773c 35bb 7f3b
00000280: 9723 10bb a49e d2bc 154f cb3c 9145 d1bc
00000290: 1e81 1e3d 71fc 603b 4cd5 ac3c ef70 64bc
000002a0: 2b31 163c edc1 10bc 14b5 a9ba b0da 96bc
000002b0: dfe5 7abc 92c0 38bc 43d1 0ebc 6674 243d
000002c0: 1f6d c63c f834 f8bb 3f21 05bd 51ab 25bb
000002d0: 6a4a 03bd 3b04 02bd a014 243e c65a 913d
000002e0: 0b06 473a 1f52 833d 30e3 693d a291 9f3c
000002f0: f8fc 9a3d ddc7 863d cb71 583c 8e0f 99bc
00000300: 7219 de3c a2dd 11be 304d af3c 597e c63d
00000310: 4071 b1bd 0182 3e3c f13b 88bb 7209 ac3d
00000320: 5ecc 7a3c 0285 00bd 50f2 593d 9341 ae3d
00000330: de55 b23c 28c7 bf3b 3421 be3c b642 1b3c
00000340: bf9f bfbc 58e3 8d3c be8a e93d 17f3 463d
00000350: a252 30bc 97df 813d 98b4 4abc 5a60 743d
00000360: cb9e 9f3d 0714 fbbd c242 cd3c 02f0 cd3b
00000370: 91bc 8c3d f098 e63c 2d50 513c 85bd ea3c
00000380: 1725 e33c 75dd c43d f4d6 f9bd aa07 053e
00000390: bf34 c63d 526d 6f3d c701 0a3e 25a9 d1bd
000003a0: 0616 2c3c ef7c a9ba 9625 4ebd afdf b13d
000003b0: d63d bd3c f0f4 3fbd 3c50 423d 9588 1ebb
000003c0: 1f74 5d3b b377 fd3c 0087 393d 665a 12bd
000003d0: ea3c d13c 8bd8 6d3b 58ca 93bc 93a1 5e3c
000003e0: c904 1abc c9c8 c8bb 7ab3 e8bb 1867 adbd
000003f0: 6fdc b33d 0b71 343c 7d1e 913b c780 12bc
0.07494354 0.17115922 -0.08104989 0.015915943 0.044059917 -0.06174159 0.0144082885 0.078088105
0.018412968 -0.010256355 -0.016478054 -0.087715365 0.017724179 0.10390406 -0.061190948 0.0038332727
0.0036260486 -0.03122554 0.008509384 -0.004525277 -0.025824456 0.035067495 0.01007779 -0.012860219
0.11252234 0.03619475 0.027868396 -0.0364939 -0.124472894 -0.024588749 0.0039913175 -0.043293834
-0.012186505 -0.04363918 -0.030584155 0.21753366 0.02485779 -0.010063739 0.09342359 0.11745111
0.03175727 0.039131064 0.10229713 0.07293392 0.0068477024 0.03370867 0.052405104 -0.016731974
-0.066434525 0.13415998 0.0075552817 -0.0046362807 0.026859244 0.022403082 -0.020084076 0.037319805
-0.09556627 -0.0011906418 -0.002943086 -0.031633638 -0.0025972826 -0.027094798 -0.04115414 -0.06625397
-0.031780124 0.0069832066 -0.05819331 -0.0014848931 -0.07625578 -0.1360237 0.036537234 0.07095913
-0.021398451 0.29089344 0.045913484 0.043861482 0.11692903 0.09534072 0.01367322 0.0016014348
-0.029821075 -0.004813448 -0.04977673 -0.022375617 0.008894806 -0.053661644 0.05775069 -0.059434805
0.01743902 -0.072861485 0.0063134134 -0.12605783 0.0034728805 0.00025352061 -0.013653378 -0.0067126066
-0.0127525665 0.012996805 0.029873198 0.06140125 -0.017084194 0.14990054 -0.0066961343 0.060521454
-0.006004434 -0.105457865 -0.015303246 0.0033522148 -0.048267633 -0.01892545 -0.041599937 -0.052891914
-0.07884009 -0.0067581604 -0.0003413081 -0.012779588 -0.0044744285 -0.011098709 -0.008656581 -0.09996334
-0.016472803 -0.0077238586 -0.022462942 -0.020378588 0.0024801476 0.082257 -0.03677354 -0.00627415
-0.006254799 -0.016142244 -0.008878245 0.008812602 0.0018691628 0.027452823 -0.04333434 0.022155857
0.40934056 -0.007137884 0.1586294 0.20173347 0.079358816 -0.010911986 0.0003383428 -0.023653755
-0.0037447545 -0.021023557 -0.077166945 0.044295497 0.045469247 -0.0038840466 -0.023409117 0.028796751
0.035154175 0.07228292 -0.08240125 0.0038358518 -0.009535616 0.007779137 0.015125745 0.0039021496
-0.002199387 -0.025710411 0.024817983 -0.025545867 0.038697354 0.0034330154 0.021097802 -0.013942941
0.009166996 -0.008835298 -0.0012947642 -0.018414825 -0.015313595 -0.011276381 -0.008716884 0.04015007
0.024221955 -0.0075746737 -0.03250241 -0.0025279114 -0.03205339 -0.031742316 0.16023493 0.07097392
0.0007592148 0.06412148 0.05710143 0.019478623 0.07567781 0.0658109 0.013210724 -0.018684175
0.027111743 -0.14244702 0.02139911 0.09692068 -0.08664179 0.011627675 -0.004157536 0.08400239
0.015307514 -0.031376846 0.053209603 0.08508601 0.02176946 0.0058525987 0.023209192 0.009476354
-0.023391603 0.01732032 0.11403416 0.048571672 -0.010761889 0.063414745 -0.0123721585 0.0596622
0.07793959 -0.12259679 0.025056247 0.0062847147 0.06871904 0.028149098 0.012775463 0.028654823
0.027727647 0.09612552 -0.12199202 0.12991205 0.09678029 0.058453865 0.1347724 -0.1023734
0.010503298 -0.001293091 -0.050328813 0.086852424 0.023100775 -0.04686445 0.0474398 -0.0024190296
0.0033791137 0.030940866 0.04529476 -0.035730742 0.025541741 0.00362924 -0.018040821 0.013588327
-0.009400555 -0.006127451 -0.0071014734 -0.08466929 0.08782279 0.01101328 0.0044286833 -0.008941836

weight_hh_l0 f4 [512, 128]
00000000: 09ee 533c 561b 673b 7b02 593b e144 503c
00000010: 7b16 11bc df69 9cbc 07c2 823c 78ff f43b
00000020: 78f1 8739 0106 cbbb d0e5 5b3c 053e 213c
00000030: bcf9 543c f774 45ba 6241 f4ba 8f57 793a
00000040: 70f4 9b3a 0cb0 10bc cbc2 3f3b e789 9f3b
00000050: bd36 973b 8f5c 763a 5310 0cbc d399 77bc
00000060: cfcd dd3a 2487 39bb 5c0f cd3c eb42 2ebc
00000070: fb66 0d3c b454 70bb 8486 753b f5b2 f83b
00000080: 3028 143c 3c7a 5dbb 52f7 de3b ae7f 95bb
00000090: 3386 4939 0294 b1ba c654 c33b 99e2 3f3c
000000a0: 216f 65bc 3cfb b0bb 19e9 b63b 095b 85bc
000000b0: be49 13bc 5d7a 28bc c664 15bc 1db9 aabb
000000c0: e5a8 68bb 09b4 f9bc 191c dabb a5f4 01bc
000000d0: 8ae9 2fbc 8bf7 cbbc 5842 e43b 6ccd dc3b
000000e0: 6ce9 e2bb 486f a8bb 5c98 0dbd 4fab 03ba
000000f0: 97c0 c73c 1e77 f9bc 009e 91b8 07ad e4bb
00000100: d145 5abc 20ae 263b 52cb 1bba 9297 733b
00000110: e7a7 febb 5fed 1bba 5ba9 403c c2f6 cabb
00000120: 3cdd fc3a 226e 84ba 0901 823c 318d 88bc
00000130: bd7c e8bc d2c8 dd3b db27 303c 8775 a33c
00000140: 97ab 8abb a4d4 7fbc 630e e5bb 5634 c63b
00000150: 31ec adbb 8e5e b3bb 47c2 8cbb 76b1 0e3c
00000160: 17f0 893c 1446 d6bb 7923 a1bc be2e 0f39
00000170: 730f 2cbb 9b23 deba c057 913b 467b d8ba
00000180: 58b2 2f3d d2cd db3a dc93 80bb 281e 63bc
00000190: 351d 683b 7638 ba3b fe63 d63a 2218 9539
000001a0: 675c 0ebc fba1 833c 52c1 6b3b 3cdd 0cb9
000001b0: 263a 143a 6a6d b0bb 84e3 373c 17a9 823b
000001c0: dae3 4b3c d50c 913b 7852 b73b e7fe 53bb
000001d0: f792 093b 72d5 7f3c 9c74 01bd f468 833b
000001e0: edfb 8f3c e1af b53b 4acc 7c3b 551d 8e3c
000001f0: f4c6 79ba 64b2 213c febb a83a 2e77 d73c
00000200: a9a5 843b 885b aebc 4eb3 513b b8e3 84bc
00000210: a549 c7bb 4624 383c 67d0 593c b512 303c
00000220: 8644 933a 7bd5 dcbb a10b 143c 266c 093c
00000230: eaa1 753b e25e 3eba cfc6 4ebc 9907 ec3a
00000240: 793c f63a 9950 83bb 070f 853b 516e 213d
00000250: 0541 d7bb aac5 abbb f08d 9eb6 c267 86bb
00000260: 745a 573b fe47 383a 7f45 103c b42c f8bc
00000270: 7e38 82ba 2497 a8ba edd8 b73c 3e63 a9bb
00000280: 5ae9 213d 5b73 9fbb 83d0 bd3b 044a 923b
00000290: 404b b9b8 9dbb 05bc d418 b9bb 880c 1d3c
000002a0: fcac dcbc 49a9 3c3c 3a3f 723c e754 ecba
000002b0: 2f4e e73b 2a15 0e3c 4288 5ebc 2911 8abd
000002c0: 90ff 80bb 5604 e5bc c112 55bc 2dfa b9bb
000002d0: 2b78 15bc cd60 22bc a3d5 1dbc c1f1 e9bb
000002e0: efed f93c 3143 06bc c07e a2bc fb0f 4dbc
000002f0: 0173 083c 0b3b 87bc 5032 033b de40 9d39
00000300: 8249 21bb b4de 5e39 a3c7 9f3a f99a 963a
00000310: 74f5 043a 164e 23bc ea3a 3f3c 5938 a6bb
00000320: a2b5 65bc e6ce 55ba f2d2 263c c88a 93bb
00000330: d5fb 973c 5c54 613b 3148 0f3c 2f4d fb3c
00000340: c56c 293c 958a 6dba 61ca 993a 5002 8bb9
00000350: e4f8 80bc 51d0 a63b 3ccd debb 4847 c1bb
00000360: 1669 893c bad3 6cbb 1b23 79bc 1c12 403a
00000370: 323a e9bb 8d96 7cbc 954c b43b f9ea b7bb
00000380: 76b7 093d 532c 70bb 5c55 563c 2a4d 84bb
00000390: 7013 0a3b 7ef2 df3b ea56 4c3b d679 283b
000003a0: 8084 80bc b9eb 8a3c 7d97 e43c 0cad 15bc
000003b0: 1f10 aeba d97b 9dbb 9fc5 dd3a ddb4 743b
000003c0: c306 883b 08e3 ba3c 4e20 96bb 7f60 efbb
000003d0: fb2e 5e3b 8494 bb3c b57c 18bd a5bb ba3b
000003e0: ce11 43bd be55 f53b c58b 103b 7f8e 543d
000003f0: 6c4d 8f3b ebb5 da3b 7045 fa3a 79ab 883c
0.01293517 0.0035264096 0.003311305 0.0127117345 -0.008855457 -0.019093452 0.01596166 0.0074767433
0.00025929115 -0.006195784 0.013421491 0.009841447 0.012998994 -0.0007532383 -0.0018635208 0.00095116434
0.001189841 -0.008831035 0.0029260393 0.004868734 0.0046146796 0.00093979476 -0.008548814 -0.015112358
0.0016922298 -0.002830931 0.025031738 -0.010636072 0.0086305095 -0.003667158 0.003746421 0.0075896927
0.009042785 -0.0033794781 0.006804385 -0.0045623397 0.00019218847 -0.0013548138 0.0059610335 0.01171174
-0.014003546 -0.005401043 0.0055819866 -0.01627876 -0.0089897495 -0.01028308 -0.009118265 -0.0052100555
-0.003550106 -0.030481355 -0.0066561815 -0.007931863 -0.010736832 -0.024898311 0.0069659166 0.0067383554
-0.0069247987 -0.005140219 -0.03456913 -0.00050227804 0.024383826 -0.030452307 -6.9435686e-05 -0.0069786343
-0.01332231 0.0025433376 -0.0005943078 0.00371692 -0.0077714804 -0.0005948152 0.0117591275 -0.0061939666
0.0019292007 -0.0010103623 0.015869634 -0.016668888 -0.028379792 0.0067683244 0.01075169 0.019953502
-0.004231881 -0.015614662 -0.0069902404 0.0060487194 -0.005307697 -0.0054739183 -0.0042956206 0.008709302
0.016838117 -0.0065391157 -0.019670235 0.00013654956 -0.0026254326 -0.0016947867 0.0044355094 -0.001651623
0.04289469 0.0016769713 -0.003923876 -0.01386217 0.00354178 0.005683 0.0016356704 0.00028437475
-0.008689023 0.01606845 0.0035973382 -0.00013433857 0.0005654417 -0.005384137 0.011223678 0.0039874422
0.012444461 0.0044265785 0.005594548 -0.0032347979 0.002099214 0.015614854 -0.031605348 0.004010314
0.017576182 0.005544648 0.0038573914 0.017347971 -0.00095282425 0.009869192 0.0012873409 0.026301946
0.0040480685 -0.02128388 0.0031997743 -0.016221866 -0.006081777 0.011239117 0.013294316 0.010746648
0.0011235632 -0.006739316 0.009035976 0.008387601 0.0037480542 -0.00072620634 -0.012620642 0.0018007635
0.0018786333 -0.0040074107 0.0040606293 0.039411847 -0.00656903 -0.0052420693 -4.7252906e-06 -0.0041017244
0.003286031 0.00070297706 0.008805632 -0.030294754 -0.0009935049 -0.0012862426 0.022442305 -0.0051693013
0.039529182 -0.0048660464 0.005792679 0.0044643898 -8.835504e-05 -0.008162406 -0.0056487117 0.009585507
-0.026937954 0.01151497 0.014785582 -0.0018030674 0.0070588808 0.008672038 -0.013582291 -0.06741554
-0.0039367154 -0.02795617 -0.01300496 -0.005675575 -0.009122889 -0.009910774 -0.0096334545 -0.007139415
0.030508963 -0.008194731 -0.01983583 -0.012516017 0.0083282 -0.016507646 0.0020019002 0.00029993703
-0.0024610464 0.00021254533 0.0012190234 0.0011490277 0.0005071976 -0.009967348 0.011671761 -0.005072635
-0.014020355 -0.00081561354 0.010182129 -0.004502628 0.0185527 0.0034382557 0.008745239 0.030676452
0.010340874 -0.0009061483 0.0011733287 -0.0002651387 -0.01574368 0.005090751 -0.006799368 -0.00589839
0.016773742 -0.003613694 -0.015206124 0.0007326917 -0.007117533 -0.0154167535 0.0055022934 -0.0056127277
0.033622228 -0.0036647513 0.013081875 -0.004037519 0.0021068715 0.0068343272 0.0031179735 0.0025707386
-0.01568818 0.016958104 0.027904266 -0.009135496 -0.0013279951 -0.0048060236 0.0016919858 0.0037339248
0.0041511967 0.022813335 -0.0045814877 -0.0073052044 0.0033902514 0.022897966 -0.037228305 0.0056986385
-0.0476244 0.007487028 0.0022055965 0.051893707 0.004373243 0.0066745183 0.001909418 0.016683327

bias_ih_l0 f4 [512]
00000000: c17e 95bd ff06 80bd 79d5 1cbc a454 22bc
00000010: 6e5d 8f3b 15af 063e 31e8 5f3d 0801 873c
00000020: b888 fbbc 0d0b 5f3b 1028 5e3c 0a22 0ebd
00000030: ce05 5ebc 0125 4bbc 91bc fbbc 6ae2 d1bc
00000040: f629 40bc 0dc2 87bc 6cbd 96bc df1d 173d
00000050: 84e7 64bc e9d4 853c 0bc2 103c a181 c53b
00000060: d9d3 cebc 76db 443b 824f 8c3d a078 b4bd
00000070: 3c98 903a 099c 8a3c 48ae bd3c b9dc 2d3d
00000080: 245d 643d b3ed 343d 563a f43c 71dc 55bd
00000090: 4c41 32bc 0ba4 b5bc 1e28 39bd a7a0 1ebc
000000a0: 6224 53ba 6650 e13b 3b98 b13d cf28 063d
000000b0: 1792 1e3d 3146 cdbc 53ae 2bbb db85 1c3e
000000c0: 9983 a2bc 13bd a03c 8f5f 03bd fd95 b0bc
000000d0: 3ce9 653d b14d 373d 5eb5 ac3d 8e75 85bc
000000e0: b550 b93c 5266 73bc b3d8 c83c ad31 8c3d
000000f0: fc7a 78bc 86ef e63d 0181 88bc 075d 19bb
00000100: 2c89 633c 490f cabc 1cff 8a3c 9063 55bd
00000110: e48f 6c3d fca4 f93c 1816 c93c 22ad 5d3d
00000120: 4a02 0e3c 858c 0bbd b1a9 f93c ce80 cfbc
00000130: d3e6 013e 5aae c03b 2fa2 c43c f00f 3d3d
00000140: e5ac 0bbd 5718 343c 0acc f4bc 2486 41bc
00000150: d013 4e3c db8c 8a3d 6a3d 703d 9db3 eb3b
00000160: 4632 613d 7e59 0dbd 735b 1b3d 6629 813c
00000170: 30bb 833c a632 d1bc 617b bfbc 65e1 b33d
00000180: 8e0e f23b 2085 d03a 6762 d1bd 4c34 e43a
00000190: 2b4c cbbc 831b 8a3c b2d4 2b3d 005d 7ebc
000001a0: 56dd 96bb d7d9 6ebc c350 95bd 422b 52bb
000001b0: 3f37 1c3c f2b5 f03b 05e4 a43c c1e5 3a3c
000001c0: 0d2b 863c 8a4a 963e a719 8b3c 8b6c d7bb
000001d0: 7a04 d0bc 3a23 e7bc 362a 16bd b692 98bc
000001e0: 2806 0b3d 0dce bd3b 2f9c 733c caa6 dabc
000001f0: 5322 8dbc e649 d93c 0010 88bc 9a3e cd3d
00000200: 6072 50bd 7558 0bbd 87a6 19ba b089 43bd
00000210: 6df6 dabc 86d8 a2bd 7cad b5bc 9ab4 18bd
00000220: c17c 73bb e30a 6c3a 72f0 b9bd 1d5e 89bc
00000230: c5d2 2bbd fe10 4bbc 49b8 c5bd bfe5 91ba
00000240: d048 62bb bfd0 bdbc 36f0 fdbb a93c e53c
00000250: e5f9 54bd cac1 503c 061c f639 b9c7 bcbb
00000260: 863b 76bc 951d a6bc 10f2 893d 1201 adbd
00000270: c0c3 113c d846 0ebd 2ea6 06ba 98e3 54bc
00000280: 2158 913d 27f0 8a3c 568c 9e3b 4843 7ebd
00000290: 48b4 01bd 99c9 f6bc cf8e 84bd e285 c9bc
000002a0: 1c5f 20bc bc73 59bc 644a eb3b 34c2 afbb
000002b0: 4815 54bd c75d 97bc 550a d8bc fefa eb3d
000002c0: 07d5 95bc 6902 33bd 259a 6ebd bf58 62bb
000002d0: 705b 67bd 4c25 52bd c33e 283d 6dc1 86bd
000002e0: 55d6 163d 1c60 9ebc 921b a63c eba0 e63c
000002f0: 43d8 0cbd 22f7 3e3d e466 c0bb c1d2 6dbc
00000300: 7cf4 213c b1bd 08bc fdd4 0a3c 682b 09bd
00000310: 406d 5a3d fa6a a33b 9478 e5bc 7bb8 2f3d
00000320: fc69 99bc 549b 31bc 08da 6ebd 1576 3cbd
00000330: 36eb b3bd cad3 6cbc 3a4f 95bb 5113 46bc
00000340: 93d2 7cbd 9d5e 4bbc 72e3 85bc e1f6 f1bb
00000350: 6050 15bd 9ca9 30ba ba76 a93c 60cb 3637
00000360: 4258 fc3c d292 ecbc 9b8e a23d 7ebf c23b
00000370: 778c 2cbc b2dd 7cbd 971f e0bc f000 3a3d
00000380: 22a4 35bd b7eb b9bb 62f4 0fbe e1f6 7bbd
00000390: 7621 d9bb 65ea c3bb b3fe e9bc 0924 5cbc
000003a0: 9a93 2abc 9ffc 6fbd 5773 0dbe 433c cbbc
000003b0: 92f8 073c 71c2 9bbc 5af4 543c 8e1d bfbb
000003c0: e2cd 23bd ca41 bf3d 9103 29bd 2101 1fbc
000003d0: e5e0 55bc 305e 493a fa0c 443c 5fa3 15bd
000003e0: 1cf9 bb39 23bc 4bbc dc75 e1bc 2243 eb3c
000003f0: 4b49 55bc 4937 5cbd c349 96ba b0a0 babb
-0.07299567 -0.062513344 -0.00957238 -0.009907875 0.0043751514 0.13152726 0.054664794 0.016479984
-0.030704841 0.0034033686 0.013559356 -0.03470043 -0.013551189 -0.012398959 -0.030729564 -0.025620658
-0.011728754 -0.016572023 -0.01840087 0.03689372 -0.013971213 0.016336875 0.008835326 0.006027416
-0.025247501 0.0030038035 0.068511024 -0.0881207 0.0011031698 0.016920106 0.023154393 0.042446826
0.05575289 0.044172 0.029812973 -0.052212182 -0.010879826 -0.022172948 -0.045204274 -0.009681857
-0.00080544327 0.0068760393 0.08671614 0.03275376 0.03871354 -0.025057884 -0.0026196435 0.15285437
-0.019838141 0.019621408 -0.032073554 -0.021555895 0.056130633 0.044751827 0.084330305 -0.016291406
0.022621492 -0.014855938 0.024517393 0.068454124 -0.0151660405 0.11276154 -0.016663076 -0.0023401396
0.013887685 -0.024665492 0.016967349 -0.052096903 0.057754412 0.030474178 0.024546668 0.05412019
0.008667538 -0.034069557 0.030476423 -0.025329974 0.12685709 0.0058801593 0.024003116 0.046157777
-0.034100432 0.010992131 -0.02988245 -0.011811767 0.012577966 0.06765147 0.05865232 0.0071930424
0.054979585 -0.034509175 0.03792901 0.01576681 0.016080469 -0.025536846 -0.023374261 0.08783225
0.007386989 0.0015908815 -0.10223847 0.0017410605 -0.024816593 0.016858822 0.04195089 -0.015525103
-0.004604022 -0.014578304 -0.07290795 -0.003206924 0.009534656 0.0073459083 0.02012826 0.011407317
0.01637795 0.29353744 0.016980005 -0.0065742186 -0.02539276 -0.02821504 -0.03666135 -0.018624645
0.033941418 0.0057923854 0.01486878 -0.02669086 -0.017228281 0.026524495 -0.016609192 0.10021706
-0.050890326 -0.034019906 -0.00058613013 -0.04773873 -0.026728833 -0.07951455 -0.02217745 -0.03728161
-0.0037153217 0.0009004308 -0.090790644 -0.01676851 -0.041949052 -0.012394188 -0.0965429 -0.0011131092
-0.0034528263 -0.023170827 -0.0077495826 0.027983027 -0.05199613 0.012741515 0.00046941655 -0.0057611135
-0.01502884 -0.020277778 0.06735623 -0.0844747 0.008896768 -0.03473553 -0.0005136457 -0.012993716
0.070968874 0.016960217 0.0048385067 -0.062075883 -0.03166607 -0.030125426 -0.06472551 -0.024599973
-0.009788301 -0.013272222 0.007180499 -0.005363727 -0.051778108 -0.018477334 -0.026372114 0.11522482
-0.018290056 -0.04370347 -0.058252472 -0.003453776 -0.056483686 -0.0513051 0.04107548 -0.06579862
0.036825497 -0.019332938 0.020276818 0.028152904 -0.03438593 0.046622403 -0.0058716405 -0.01451558
0.00988495 -0.008346007 0.008473632 -0.03348866 0.053326845 0.004987118 -0.028011598 0.042900544
-0.018727295 -0.010840256 -0.0583134 -0.04601105 -0.08785097 -0.014454791 -0.0045565637 -0.012089566
-0.061724257 -0.012412694 -0.016343806 -0.0073841666 -0.036453605 -0.0006739141 0.020686496 1.0895397e-05
0.030803803 -0.028878603 0.07937356 0.005943238 -0.010531536 -0.061734863 -0.027358813 0.04541105
-0.044345982 -0.0056738514 -0.14058068 -0.06151474 -0.0066263033 -0.0059788697 -0.028563833 -0.013436326
-0.0104111675 -0.058590528 -0.1381353 -0.024809008 0.00829901 -0.019013615 0.012997711 -0.0058323806
-0.039991267 0.0933872 -0.041263167 -0.009704859 -0.013054107 0.00076815765 0.0119659845 -0.036532756
0.0003585302 -0.012434992 -0.02752202 0.028718535 -0.013017963 -0.05376366 -0.0011466075 -0.005695425

bias_hh_l0 f4 [512]
00000000: c17e 95bd ff06 80bd 79d5 1cbc a454 22bc
00000010: 6e5d 8f3b 15af 063e 31e8 5f3d 0801 873c
00000020: b888 fbbc 0d0b 5f3b 1028 5e3c 0a22 0ebd
00000030: ce05 5ebc 0125 4bbc 91bc fbbc 6ae2 d1bc
00000040: f629 40bc 0dc2 87bc 6cbd 96bc df1d 173d
00000050: 84e7 64bc e9d4 853c 0bc2 103c a181 c53b
00000060: d9d3 cebc 76db 443b 824f 8c3d a078 b4bd
00000070: 3c98 903a 099c 8a3c 48ae bd3c b9dc 2d3d
00000080: 245d 643d b3ed 343d 563a f43c 71dc 55bd
00000090: 4c41 32bc 0ba4 b5bc 1e28 39bd a7a0 1ebc
000000a0: 6224 53ba 6650 e13b 3b98 b13d cf28 063d
000000b0: 1792 1e3d 3146 cdbc 53ae 2bbb db85 1c3e
000000c0: 9983 a2bc 13bd a03c 8f5f 03bd fd95 b0bc
000000d0: 3ce9 653d b14d 373d 5eb5 ac3d 8e75 85bc
000000e0: b550 b93c 5266 73bc b3d8 c83c ad31 8c3d
000000f0: fc7a 78bc 86ef e63d 0181 88bc 075d 19bb
00000100: 2c89 633c 490f cabc 1cff 8a3c 9063 55bd
00000110: e48f 6c3d fca4 f93c 1816 c93c 22ad 5d3d
00000120: 4a02 0e3c 858c 0bbd b1a9 f93c ce80 cfbc
00000130: d3e6 013e 5aae c03b 2fa2 c43c f00f 3d3d
00000140: e5ac 0bbd 5718 343c 0acc f4bc 2486 41bc
00000150: d013 4e3c db8c 8a3d 6a3d 703d 9db3 eb3b
00000160: 4632 613d 7e59 0dbd 735b 1b3d 6629 813c
00000170: 30bb 833c a632 d1bc 617b bfbc 65e1 b33d
00000180: 8e0e f23b 2085 d03a 6762 d1bd 4c34 e43a
00000190: 2b4c cbbc 831b 8a3c b2d4 2b3d 005d 7ebc
000001a0: 56dd 96bb d7d9 6ebc c350 95bd 422b 52bb
000001b0: 3f37 1c3c f2b5 f03b 05e4 a43c c1e5 3a3c
000001c0: 0d2b 863c 8a4a 963e a719 8b3c 8b6c d7bb
000001d0: 7a04 d0bc 3a23 e7bc 362a 16bd b692 98bc
000001e0: 2806 0b3d 0dce bd3b 2f9c 733c caa6 dabc
000001f0: 5322 8dbc e649 d93c 0010 88bc 9a3e cd3d
00000200: 6072 50bd 7558 0bbd 87a6 19ba b089 43bd
00000210: 6df6 dabc 86d8 a2bd 7cad b5bc 9ab4 18bd
00000220: c17c 73bb e30a 6c3a 72f0 b9bd 1d5e 89bc
00000230: c5d2 2bbd fe10 4bbc 49b8 c5bd bfe5 91ba
00000240: d048 62bb bfd0 bdbc 36f0 fdbb a93c e53c
00000250: e5f9 54bd cac1 503c 061c f639 b9c7 bcbb
00000260: 863b 76bc 951d a6bc 10f2 893d 1201 adbd
00000270: c0c3 113c d846 0ebd 2ea6 06ba 98e3 54bc
00000280: 2158 913d 27f0 8a3c 568c 9e3b 4843 7ebd
00000290: 48b4 01bd 99c9 f6bc cf8e 84bd e285 c9bc
000002a0: 1c5f 20bc bc73 59bc 644a eb3b 34c2 afbb
000002b0: 4815 54bd c75d 97bc 550a d8bc fefa eb3d
000002c0: 07d5 95bc 6902 33bd 259a 6ebd bf58 62bb
000002d0: 705b 67bd 4c25 52bd c33e 283d 6dc1 86bd
000002e0: 55d6 163d 1c60 9ebc 921b a63c eba0 e63c
000002f0: 43d8 0cbd 22f7 3e3d e466 c0bb c1d2 6dbc
00000300: 7cf4 213c b1bd 08bc fdd4 0a3c 682b 09bd
00000310: 406d 5a3d fa6a a33b 9478 e5bc 7bb8 2f3d
00000320: fc69 99bc 549b 31bc 08da 6ebd 1576 3cbd
00000330: 36eb b3bd cad3 6cbc 3a4f 95bb 5113 46bc
00000340: 93d2 7cbd 9d5e 4bbc 72e3 85bc e1f6 f1bb
00000350: 6050 15bd 9ca9 30ba ba76 a93c 60cb 3637
00000360: 4258 fc3c d292 ecbc 9b8e a23d 7ebf c23b
00000370: 778c 2cbc b2dd 7cbd 971f e0bc f000 3a3d
00000380: 22a4 35bd b7eb b9bb 62f4 0fbe e1f6 7bbd
00000390: 7621 d9bb 65ea c3bb b3fe e9bc 0924 5cbc
000003a0: 9a93 2abc 9ffc 6fbd 5773 0dbe 433c cbbc
000003b0: 92f8 073c 71c2 9bbc 5af4 543c 8e1d bfbb
000003c0: e2cd 23bd ca41 bf3d 9103 29bd 2101 1fbc
000003d0: e5e0 55bc 305e 493a fa0c 443c 5fa3 15bd
000003e0: 1cf9 bb39 23bc 4bbc dc75 e1bc 2243 eb3c
000003f0: 4b49 55bc 4937 5cbd c349 96ba b0a0 babb
-0.07299567 -0.062513344 -0.00957238 -0.009907875 0.0043751514 0.13152726 0.054664794 0.016479984
-0.030704841 0.0034033686 0.013559356 -0.03470043 -0.013551189 -0.012398959 -0.030729564 -0.025620658
-0.011728754 -0.016572023 -0.01840087 0.03689372 -0.013971213 0.016336875 0.008835326 0.006027416
-0.025247501 0.0030038035 0.068511024 -0.0881207 0.0011031698 0.016920106 0.023154393 0.042446826
0.05575289 0.044172 0.029812973 -0.052212182 -0.010879826 -0.022172948 -0.045204274 -0.009681857
-0.00080544327 0.0068760393 0.08671614 0.03275376 0.03871354 -0.025057884 -0.0026196435 0.15285437
-0.019838141 0.019621408 -0.032073554 -0.021555895 0.056130633 0.044751827 0.084330305 -0.016291406
0.022621492 -0.014855938 0.024517393 0.068454124 -0.0151660405 0.11276154 -0.016663076 -0.0023401396
0.013887685 -0.024665492 0.016967349 -0.052096903 0.057754412 0.030474178 0.024546668 0.05412019
0.008667538 -0.034069557 0.030476423 -0.025329974 0.12685709 0.0058801593 0.024003116 0.046157777
-0.034100432 0.010992131 -0.02988245 -0.011811767 0.012577966 0.06765147 0.05865232 0.0071930424
0.054979585 -0.034509175 0.03792901 0.01576681 0.016080469 -0.025536846 -0.023374261 0.08783225
0.007386989 0.0015908815 -0.10223847 0.0017410605 -0.024816593 0.016858822 0.04195089 -0.015525103
-0.004604022 -0.014578304 -0.07290795 -0.003206924 0.009534656 0.0073459083 0.02012826 0.011407317
0.01637795 0.29353744 0.016980005 -0.0065742186 -0.02539276 -0.02821504 -0.03666135 -0.018624645
0.033941418 0.0057923854 0.01486878 -0.02669086 -0.017228281 0.026524495 -0.016609192 0.10021706
-0.050890326 -0.034019906 -0.00058613013 -0.04773873 -0.026728833 -0.07951455 -0.02217745 -0.03728161
-0.0037153217 0.0009004308 -0.090790644 -0.01676851 -0.041949052 -0.012394188 -0.0965429 -0.0011131092
-0.0034528263 -0.023170827 -0.0077495826 0.027983027 -0.05199613 0.012741515 0.00046941655 -0.0057611135
-0.01502884 -0.020277778 0.06735623 -0.0844747 0.008896768 -0.03473553 -0.0005136457 -0.012993716
0.070968874 0.016960217 0.0048385067 -0.062075883 -0.03166607 -0.030125426 -0.06472551 -0.024599973
-0.009788301 -0.013272222 0.007180499 -0.005363727 -0.051778108 -0.018477334 -0.026372114 0.11522482
-0.018290056 -0.04370347 -0.058252472 -0.003453776 -0.056483686 -0.0513051 0.04107548 -0.06579862
0.036825497 -0.019332938 0.020276818 0.028152904 -0.03438593 0.046622403 -0.0058716405 -0.01451558
0.00988495 -0.008346007 0.008473632 -0.03348866 0.053326845 0.004987118 -0.028011598 0.042900544
-0.018727295 -0.010840256 -0.0583134 -0.04601105 -0.08785097 -0.014454791 -0.0045565637 -0.012089566
-0.061724257 -0.012412694 -0.016343806 -0.0073841666 -0.036453605 -0.0006739141 0.020686496 1.0895397e-05
0.030803803 -0.028878603 0.07937356 0.005943238 -0.010531536 -0.061734863 -0.027358813 0.04541105
-0.044345982 -0.0056738514 -0.14058068 -0.06151474 -0.0066263033 -0.0059788697 -0.028563833 -0.013436326
-0.0104111675 -0.058590528 -0.1381353 -0.024809008 0.00829901 -0.019013615 0.012997711 -0.0058323806
-0.039991267 0.0933872 -0.041263167 -0.009704859 -0.013054107 0.00076815765 0.0119659845 -0.036532756
0.0003585302 -0.012434992 -0.02752202 0.028718535 -0.013017963 -0.05376366 -0.0011466075 -0.005695425

weight_ih_l0_reverse f4 [512, 7]
00000000: 9c4b 0e3c 84c8 a63d 3172 d9bc 38ea cb3c
00000010: d067 2d3d 50a8 673d edc5 fe3d 7056 0cbc
00000020: 3ec0 1ebb 6ec0 dbbb 01d3 843b c0b7 c4ba
00000030: 6e9d 023c 99d7 fbbb 217b 673d e6b4 5cbd
00000040: dfcd 82bb 5c56 093d 861b c73c 9e80 863d
00000050: d22c 853d 7aff 81bd 8cb0 9abb 155b 1e3a
00000060: 2992 50bc 1c60 2bbb 90d2 09bc fea2 9ebc
00000070: 0ca8 88bd 6725 f3ba 4d13 e7b8 1d31 dfba
00000080: 823d 50ba a00d 4dba a4a3 b3ba bbf5 1dbd
00000090: e547 4c3b 8016 2cbc c21f 3f3b 2071 4d3b
000000a0: 4356 7b39 dadd 773b 8fbb cc3d e864 693d
000000b0: 552b 5cbc 7fda 993c 4acc e63b 0ff5 333c
000000c0: 2321 073d 7e07 893d 11a8 413d b3bd d9bc
000000d0: 10a1 d63b 8249 053d c867 1cbc 6396 a53c
000000e0: 2371 f43d b960 d23c 9b72 0cbc 51c7 2b3c
000000f0: 04b7 cf3b 57bd 7c3c 6f06 7b3c ceb0 82bd
00000100: 3b6e 50bb a9e4 05bc 4b5d cabb 4da1 21bc
00000110: b448 f2bc 9d82 65bc e898 cabd 6fcd d3bc
00000120: 4b49 cbbb 4d86 13bc d8dc 6dbc ca99 85bb
00000130: 9e56 603a 0995 113d b582 9d3d 4b77 afbc
00000140: 7144 483c 2e26 dd3c a713 843c 34c4 3e3d
00000150: bbbe 90bd bfb4 5ebb b861 8a3a e71c 8abb
00000160: c0fb 4039 1d84 3abb 5d7e f4bb a7ce cabd
00000170: a0f8 b6ba 1131 89b9 85b1 09bb a05b 96ba
00000180: 4a44 12bb fcfd faba d967 ed3c 23d5 73ba
00000190: 4f78 2dbc 77c9 563c c50d b13a 0bac f43c
000001a0: 106f 4f3b 0c2a 48bd 2017 a33a 203e f03b
000001b0: 381e f0ba 6d10 07bb b420 dbba 4216 4fbc
000001c0: 1c44 fb3d 56da bd3d 6daf ccbc 5d93 b53c
000001d0: 049d dc3c 3de3 ef3b 989e 843d 7ae2 f63c
000001e0: 19f3 9c3b a210 93bc 6ba6 403c 0b6b 6b3c
000001f0: ad61 ee3b b1a4 2abc 3f50 a7bd 11e6 3ebc
00000200: ac36 a2bb 3f8b 9fbc 2f85 12bc e6a6 6abb
00000210: b4b1 c7bb 2c79 523d 1b58 c03c 4931 10bc
00000220: 85a5 e2bc 970c 1fbc da79 9dbc 2498 cd3a
00000230: a391 c5bd 59ae ecb9 2433 533b c4f4 ca3b
00000240: a80d 2f3c 9a08 f63b 5a97 403b 8007 6abd
00000250: 3f80 abbb 6b4c 8cbb 4ebf a2bb 5c1b 3ebb
00000260: 1ca2 6ebb 01c1 8abb 184a 2d3e d005 29bb
00000270: b19c 04bb 2635 003d e655 b63c 32ca 083d
00000280: 211d 0b3d 55e4 86bd a8bc 52bb 3c0e cfba
00000290: b31f 56bb a1ae 6dbb 57e0 ccba d6ac 39bb
000002a0: be0d 3ebd 8de7 d9bc f685 06b9 ce1b 22bd
000002b0: 8fcf acbc a2bb 19bd 9f3f aabc 6259 b6bd
000002c0: e970 e0bc 95c5 ab3b b972 9cbc ab4d 8eb9
000002d0: 3e7a af3b 0252 6bbd 9a3c 21be c8ec cfbc
000002e0: 132d 95bb 9f98 abbc 2cfb 4abc 269c 58bc
000002f0: 0e9f d1bb d7cb 833d d5ce 913b d2d2 debc
00000300: ceec 7abd 763f bdbc 243b 03bd 7e85 e8ba
00000310: b6ea 113e 6b83 973c 9958 83bc d730 653c
00000320: 75f4 b33c db01 c5ba 9afa 113d b4f0 8ebd
00000330: 5e8b 51bc f1a7 7fbb bd8b 05bc a28f 29bc
00000340: 56c1 2dbc e3e6 fe3b 2e11 e4bd 9269 39bb
00000350: 3621 12bb 4c6b 72bb 7bfa 0bbb 8b32 10bb
00000360: 2ba9 8cbb 2e97 a03d a74f 1ebc d630 a5bb
00000370: ea8e 193c 4dc0 003c 17ad 88bb ae4c 633c
00000380: bf77 f1bd dd65 1bbb 52d8 99ba 1689 9bbb
00000390: 32ad baba d3f1 b1ba f3b3 6fbb 6a2d 05be
000003a0: 6c5b 083c 5402 3cbb 6044 c3b8 5fcf 443c
000003b0: e4f9 413c c06a a3bc 656a b23c 1701 0e3b
000003c0: 119b aab9 ff5c f7b9 e3ba 5a39 08c2 a13a
000003d0: 1d3c 6dbc 40e3 72bd ab7a cc3b 2ec2 2b3b
000003e0: 8df4 343c 59a0 443c 4460 6b3b 1ebb 953c
000003f0: fa9a 863c e308 463c 1933 40bc a809 1e3d
0.008685019 0.08143714 -0.026543709 0.024891958 0.04233533 0.056557 0.12440095 -0.00856553
-0.0024223472 -0.006706289 0.004053474 -0.0015008375 0.0079721045 -0.0076856134 0.05651391 -0.053883456
-0.003991827 0.033529624 0.024305116 0.065675005 0.065026894 -0.063475564 -0.004720753 0.0006040794
-0.01273016 -0.0026149815 -0.008412018 -0.01936483 -0.066726774 -0.0018550575 -0.000110185334 -0.0017028187
-0.00079437357 -0.00078221597 -0.0013705385 -0.038564425 0.0031170782 -0.010503411 0.0029163216 0.0031347945
0.0002396936 0.0037821443 0.099967115 0.056980997 -0.013438066 0.018780945 0.007043396 0.0109837195
0.032990586 0.06690882 0.04727942 -0.026579713 0.006549962 0.032540806 -0.009546228 0.020213312
0.119356416 0.025680887 -0.008572246 0.010484532 0.006338956 0.0154260015 0.015321358 -0.06381379
-0.0031803984 -0.008172193 -0.006175672 -0.009865117 -0.029575683 -0.014008191 -0.09892446 -0.025854794
-0.0062038056 -0.009004188 -0.014517985 -0.004077171 0.0008557829 0.03554252 0.07690946 -0.021419188
0.012223349 0.026995745 0.016122652 0.046573833 -0.07067629 -0.0033982245 0.0010557687 -0.004214871
0.00018404331 -0.0028460093 -0.0074613527 -0.09902697 -0.0013959594 -0.00026167234 -0.002101035 -0.0011471398
-0.0022318535 -0.001914918 0.028980182 -0.0009301474 -0.010587766 0.013109556 0.0013508132 0.029867193
0.0031651892 -0.048868224 0.0012442805 0.0073316246 -0.0018319553 -0.0020609156 -0.001671812 -0.012639584
0.1226885 0.0927016 -0.024985993 0.022164995 0.02693034 0.00732079 0.06475562 0.03013729
0.0047897217 -0.017952267 0.011758427 0.014368783 0.0072748275 -0.010415242 -0.081696026 -0.011651532
-0.004950365 -0.019475577 -0.008942886 -0.0035805046 -0.006094182 0.05138509 0.023479512 -0.008800813
-0.027666816 -0.0097075915 -0.019223142 0.00156856 -0.096469186 -0.00045143327 0.0032226527 0.006193729
0.010684408 0.0075083496 0.0029387088 -0.05713606 -0.005233794 -0.0042815707 -0.004966653 -0.0029008007
-0.0036412543 -0.0042344336 0.16922796 -0.0025790818 -0.0020234997 0.031300686 0.022257756 0.033395953
0.033963326 -0.0658652 -0.0032155905 -0.0015797089 -0.0032672703 -0.0036267417 -0.0015630823 -0.0028331778
-0.046399824 -0.02659967 -0.0001282914 -0.039577298 -0.021095065 -0.037532456 -0.02078229 -0.08903767
-0.02739759 0.0052420595 -0.019097673 -0.00027142218 0.0053551486 -0.057451256 -0.15745774 -0.02538146
-0.0045524924 -0.020946799 -0.012388986 -0.013220822 -0.0063971346 0.06435364 0.004449705 -0.027200136
-0.06126099 -0.02310155 -0.032038823 -0.0017739979 0.14249691 0.018495282 -0.016033458 0.013988695
0.021967152 -0.001503046 0.035639383 -0.06979504 -0.012789575 -0.0039010013 -0.008150992 -0.010349186
-0.010605177 0.0077789887 -0.11136089 -0.0028291685 -0.0022297627 -0.0036990223 -0.0021359015 -0.0022002782
-0.0042926273 0.07841335 -0.009662545 -0.005041222 0.009372452 0.007858348 -0.0041710245 0.013873262
-0.11790418 -0.0023711838 -0.0011737442 -0.0047465665 -0.001424229 -0.0013576098 -0.0036575764 -0.13005605
0.008322578 -0.002868791 -9.3110604e-05 0.012012332 0.011839364 -0.019948363 0.021779248 0.002166813
-0.0003254046 -0.000471808 0.00020859721 0.0012341151 -0.014479664 -0.059298754 0.006240209 0.002620827
0.011044634 0.0120011205 0.0035915533 0.018277701 0.01643132 0.01208708 -0.011730933 0.038583428

weight_hh_l0_reverse f4 [512, 128]
00000000: 59c7 9601 9104 6701 7877 7c80 ce07 5481
00000010: 8a1b 6801 f2a1 8181 072e 4081 1421 3481
00000020: 239f 7a81 04d0 4080 d492 6e81 f8c2 d580
00000030: 3abd ee80 a238 5a81 cede 6701 d538 c180
00000040: 942d 2c00 2682 0e81 b147 1401 de29 8e01
00000050: d126 7181 161b 5901 b0f4 ea80 1a5e 9c01
00000060: 30fb 5f81 a6a0 9e01 7ac3 6b01 8257 fe00
00000070: 48a5 2381 4cc1 8601 2cca 8a81 1613 0601
00000080: 4858 c880 4852 0080 9cb0 0901 9049 b780
00000090: 361f 9c81 6eb0 e480 a87f 4801 9a64 9701
000000a0: 49f5 8081 1910 0d01 3dd9 aa01 00a3 9600
000000b0: 2873 7681 a021 9e00 62b6 6a01 3899 9301
000000c0: 6cdf 3401 420f 9601 a89b c300 79b2 2300
000000d0: ec69 ad01 b73f 1c80 e78e 3c81 b108 9e01
000000e0: d689 0601 3c0c 9901 e2b3 dc80 efd5 8601
000000f0: 1616 7381 969c 1201 2cf1 1800 9277 3581
00000100: da53 5481 3290 3981 3e78 3a00 40fc 8d00
00000110: 8de6 a081 a4c0 4600 7ea9 7f01 2589 a901
00000120: f45b 4201 1891 b701 b4d3 a581 c3b4 2981
00000130: d8d5 9d01 c12c 3d01 426b 1500 91e4 9a00
00000140: c42d 9801 b5ac 3181 fe6e b280 7cf7 3700
00000150: 6a7d 8d01 08ff 3281 b875 3901 60b1 2300
00000160: cf24 4b00 6810 7101 9104 7681 6cc4 6301
00000170: fa51 7281 169c 5001 dc3e 4c01 70a6 5f01
00000180: 7742 b101 c081 1780 a9bf af81 9013 7180
00000190: 6ce0 7800 e816 3981 6ea0 0301 0b35 9781
000001a0: 10dd 3300 1bf4 a801 66ad 0380 c254 f880
000001b0: d292 2d81 6bfd e200 b4af 7d81 4b0a 3581
000001c0: b9d8 bf81 2cc9 8b00 97e8 8681 6c63 9000
000001d0: 660f 6301 cc5c 6081 7e13 a701 5a3a 6e01
000001e0: e0a8 5300 ba33 5f01 c9f7 6d01 7ce2 2101
000001f0: 56a7 b701 a012 3701 1d7a 3980 c6d0 a901
00000200: 6b8e 8901 5bfe 4080 c4f9 2501 662e 1101
00000210: 9b93 0d81 5e42 4381 96ee 7b81 6162 bb81
00000220: 3337 6581 4c63 7c01 3675 a001 b6cc aa81
00000230: 64bc 3680 5271 5900 fcce 5600 f278 8781
00000240: d688 d480 1094 5e81 9c3e 8081 b264 1981
00000250: c4d8 8201 7cae 7100 ecac da00 fe2b 0381
00000260: 5ae7 3181 4e77 cb80 dc94 0401 e8f6 af81
00000270: 36b5 7d80 2fd4 3000 605d 6981 6016 8e00
00000280: 2807 7100 ff13 8401 98a6 1101 1dfb 9281
00000290: b3ae 8601 7ab8 3400 fa44 6c01 a65b f900
000002a0: aacb 9901 1cf8 8581 e42b a281 9e64 ea80
000002b0: d2ac 6501 33a5 8781 e837 8f80 1cab 9e01
000002c0: 9e19 6d80 fb7b a201 df04 3680 a1e7 4181
000002d0: 7914 bc81 48c8 b681 2844 2281 c050 a600
000002e0: 414c 8680 289e 2e01 b2a5 7f01 9414 5201
000002f0: e68e 2881 38a8 8801 0ef6 3701 a429 3d81
00000300: 7a4e aa00 2c57 7400 a44f 3081 170d 5e81
00000310: 2782 7601 390c 3d01 527f 8f01 94b8 6800
00000320: f5cd 0680 1e8c 0a00 a459 1781 e242 8800
00000330: 2179 0001 88e1 a401 cb2e ae81 d7c3 0f01
00000340: 8466 6081 dc92 7081 0089 7e01 480b 8c81
00000350: 2f2a 8701 ac77 fa00 fc7a 8981 aa7d 9c00
00000360: f0fd 3401 ae34 2e01 16cc f300 d876 e580
00000370: 7445 f200 aa78 4181 9d1b a201 32d0 9981
00000380: 4034 1700 d8b6 5681 643c 6780 6fec 3700
00000390: c3ad 9c01 f65b 9f01 f012 4800 aa79 5f01
000003a0: 95bb 9401 b46f a781 c659 9b81 26e9 9681
000003b0: 12f8 3b01 d0f3 5580 877e 2f01 0cef 2c80
000003c0: 59fd 3981 0853 9980 70dd 9480 fcc6 8800
000003d0: b8ec b781 d443 b001 62b6 be81 0666 b180
000003e0: 547d 8600 c4ca 3100 6693 5381 7237 f700
000003f0: d441 4b00 9881 3d01 2063 7680 f64c 9081
5.538735e-38 4.2431275e-38 -1.1430459e-38 -3.894385e-38 4.2631429e-38 -4.7619496e-38 -3.5297854e-38 -3.308451e-38
-4.6031923e-38 -5.952094e-39 -4.381904e-38 -1.9630902e-38 -2.192473e-38 -4.0080908e-38 4.2587854e-38 -1.7744638e-38
4.057112e-39 -2.6174658e-38 2.7234743e-38 5.222264e-38 -4.4292559e-38 3.9876039e-38 -2.1577283e-38 5.744038e-38
-4.113885e-38 5.827055e-38 4.330293e-38 2.3357608e-38 -3.0056955e-38 4.9501193e-38 -5.0983296e-38 2.4625606e-38
-1.8398769e-38 -2.9517e-41 2.5289637e-38 -1.6832285e-38 -5.7350135e-38 -2.1001784e-38 3.6825787e-38 5.5612996e-38
-4.737174e-38 2.590916e-38 6.275986e-38 1.3833798e-38 -4.5265685e-38 1.4522071e-38 4.3109865e-38 5.421913e-38
3.3221076e-38 5.512319e-38 1.796376e-38 3.278266e-39 6.3702154e-38 -2.59425e-39 -3.4632674e-38 5.8052505e-38
2.4710805e-38 5.622088e-38 -2.0268339e-38 4.9530806e-38 -4.4647897e-38 2.692831e-38 2.290568e-39 -3.3330237e-38
-3.899841e-38 -3.408259e-38 5.369594e-39 1.3039295e-38 -5.910554e-38 6.497591e-39 4.6957708e-38 6.227759e-38
3.5698146e-38 6.743178e-38 -6.0915207e-38 -3.1170088e-38 5.797954e-38 3.4745927e-38 1.967022e-39 1.422466e-38
5.590165e-38 -3.2633677e-38 -1.6386535e-38 5.139733e-39 5.197518e-38 -3.2876413e-38 3.4063593e-38 3.277873e-39
6.900867e-39 4.427648e-38 -4.518634e-38 4.183424e-38 -4.4507195e-38 3.8315553e-38 3.7513982e-38 4.1078044e-38
6.5114904e-38 -2.158762e-39 -6.4559866e-38 -1.0384429e-38 1.1100767e-38 -3.3995568e-38 2.4176003e-38 -5.554475e-38
4.762913e-39 6.206373e-38 -3.3771e-40 -2.2805608e-38 -3.188042e-38 2.0845731e-38 -4.6594822e-38 -3.3251834e-38
-7.04733e-38 1.2837301e-38 -4.9557576e-38 1.3259977e-38 4.1704363e-38 -4.120888e-38 6.137408e-38 4.375556e-38
7.682927e-39 4.0995743e-38 4.3707802e-38 2.9733524e-38 6.74637e-38 3.3625154e-38 -5.278429e-39 6.238037e-38
5.053021e-38 -5.968717e-39 3.0484912e-38 2.6665583e-38 -2.6003512e-38 -3.586346e-38 -4.6272596e-38 -6.883412e-38
-4.210026e-38 4.6356332e-38 5.8942907e-38 -6.2741883e-38 -5.026699e-39 8.214011e-39 7.972105e-39 -4.9764716e-38
-1.9518213e-38 -4.088119e-38 -4.7109614e-38 -2.8173907e-38 4.80655e-38 1.0440004e-38 2.0082171e-38 -2.4092463e-38
-3.2675752e-38 -1.8685404e-38 2.4351372e-38 -6.463914e-38 -1.1544443e-38 4.484221e-39 -4.2862334e-38 1.3048667e-38
1.0379978e-38 4.8517835e-38 2.675182e-38 -5.399226e-38 4.9474507e-38 4.841624e-39 4.3395842e-38 2.2899916e-38
5.649557e-38 -4.9212503e-38 -5.957238e-38 -2.1525601e-38 4.218465e-38 -4.9828217e-38 -1.3152531e-38 5.8285563e-38
-1.0019259e-38 5.9687305e-38 -4.960864e-39 -3.5614687e-38 -6.908967e-38 -6.714363e-38 -2.98036e-38 1.527366e-38
-1.2333311e-38 3.2072224e-38 4.6954984e-38 3.8585672e-38 -3.095925e-38 5.019989e-38 3.3788327e-38 -3.4743693e-38
1.5640186e-38 1.0684189e-38 -3.2383234e-38 -4.0784352e-38 4.5276444e-38 3.4722587e-38 5.27126e-38 9.617106e-39
-6.24896e-40 9.6862e-40 -2.7798634e-38 1.251362e-38 2.3596793e-38 6.0567707e-38 -6.398465e-38 2.640546e-38
-4.1215854e-38 -4.4186405e-38 4.6750725e-38 -5.1444066e-38 4.96517e-38 2.3001804e-38 -5.0502326e-38 1.4371417e-38
3.324297e-38 3.1996548e-38 2.2389238e-38 -2.1072962e-38 2.2249105e-38 -3.5535074e-38 5.9549025e-38 -5.650207e-38
2.13096e-39 -3.9436776e-38 -9.48072e-39 5.135769e-39 5.7554685e-38 5.8539333e-38 6.618949e-39 4.104592e-38
5.463578e-38 -6.15064e-38 -5.7066826e-38 -5.543585e-38 3.4524457e-38 -7.89348e-39 3.2233203e-38 -4.126516e-39
-3.4160902e-38 -1.4080617e-38 -1.367109e-38 1.256101e-38 -6.756326e-38 6.474952e-38 -7.0056684e-38 -1.6291482e-38
1.2350916e-38 4.572678e-39 -3.8860333e-38 2.2703258e-38 6.911277e-39 3.4806797e-38 -1.0872148e-38 -5.300768e-38

bias_ih_l0_reverse f4 [512]
00000000: eea8 113d 6365 96bb e78b 3f3d f563 70bc
00000010: 9228 65bb b5e4 813b 600c ca3c a290 2a37
00000020: 277d 5c3c e583 9fbc 1c58 2cbc 0e90 e23c
00000030: 2faf a0bb 2849 8fbb 32fe 4d3c 9e67 5ebb
00000040: 44e3 213c dd5c 853c cb6b 92bc 7e86 abbc
00000050: e4bd 003c 38d5 c9bb 5608 363d e417 8cbb
00000060: 35e1 5fbc 220c 64bc 46d9 92bc ca66 69bd
00000070: a764 253c 462c 52bc b89f b3bb e2ff a13c
00000080: 23ad c6bb fcf4 94bc 25a7 85bb 6ee1 2a3c
00000090: 0d7f df3c 3fbb 2dbc d01b 2fbc 8938 00bb
000000a0: 66e3 51bd 9151 1cbc 7f3c fe3c 3b48 c1bb
000000b0: 302b 1a3d 419b 383b d936 1cba 5f0a 0cbd
000000c0: a264 72bc 761f 833d 211b faba 4e3b 173a
000000d0: 909b 893a 4e6d 4bbc e21b 1cbb de34 adbb
000000e0: 7218 33bc c9d5 6ebb 106b 0fbc 5e90 fa3c
000000f0: 8104 8aba 7c48 d1bc c2ec e0bc 51e5 553c
00000100: 39cf 8bbc 272f 6c3d 4c8b 353d fc69 55bb
00000110: 7a37 a63c d28a 0c39 da8c 5bbb c311 84bb
00000120: c14a 923b 3de1 643b afa9 7c3b 6d38 a7bc
00000130: cc5a 23bc 9926 e7ba 3e23 023b 30f0 28bc
00000140: 0358 15bc a079 27bc 456d 46bc 32ab cabb
00000150: 2384 d83c ed7c 96bb 53ad 423c eedf 933c
00000160: e31d 31bb a874 21bc 7988 813d f221 8fbc
00000170: 709e adbc 1234 80bb 9f3a 4bbb 5059 a03c
00000180: fd74 c83b 61db 603a 3508 a63c 126b 4fbc
00000190: f3b8 dfbb b50f 463d fda1 90bb 8edc 9a3c
000001a0: 9a2a babb f110 cebb 9f1c 42bb 1024 35bc
000001b0: 7623 5bbb 123b abbc 4711 c7bb e361 bd3c
000001c0: 1914 fabb f07a 18bc 0e85 abbc 8909 8ebb
000001d0: a000 cd3b 03d8 ca3b 5bac fd39 d76c 42bb
000001e0: 1547 ccbb d570 a3bb bcf3 95bc a35d 213b
000001f0: b61e 0dbc 59f4 52bc dd33 bfbc 77e7 cf3c
00000200: 0000 0000 0000 0000 0000 0000 0000 0000
00000210: 0000 0000 0000 0000 0000 0000 0000 0000
00000220: 0000 0000 0000 0000 0000 0000 0000 0000
00000230: 0000 0000 0000 0000 0000 0000 0000 0000
00000240: 0000 0000 0000 0000 0000 0000 0000 0000
00000250: 0000 0000 0000 0000 0000 0000 0000 0000
00000260: 0000 0000 0000 0000 0000 0000 0000 0000
00000270: 0000 0000 0000 0000 0000 0000 0000 0000
00000280: 0000 0000 0000 0000 0000 0000 0000 0000
00000290: 0000 0000 0000 0000 0000 0000 0000 0000
000002a0: 0000 0000 0000 0000 0000 0000 0000 0000
000002b0: 0000 0000 0000 0000 0000 0000 0000 0000
000002c0: 0000 0000 0000 0000 0000 0000 0000 0000
000002d0: 0000 0000 0000 0000 0000 0000 0000 0000
000002e0: 0000 0000 0000 0000 0000 0000 0000 0000
000002f0: 0000 0000 0000 0000 0000 0000 0000 0000
00000300: 0000 0000 0000 0000 0000 0000 0000 0000
00000310: 0000 0000 0000 0000 0000 0000 0000 0000
00000320: 0000 0000 0000 0000 0000 0000 0000 0000
00000330: 0000 0000 0000 0000 0000 0000 0000 0000
00000340: 0000 0000 0000 0000 0000 0000 0000 0000
00000350: 0000 0000 0000 0000 0000 0000 0000 0000
00000360: 0000 0000 0000 0000 0000 0000 0000 0000
00000370: 0000 0000 0000 0000 0000 0000 0000 0000
00000380: 0000 0000 0000 0000 0000 0000 0000 0000
00000390: 0000 0000 0000 0000 0000 0000 0000 0000
000003a0: 0000 0000 0000 0000 0000 0000 0000 0000
000003b0: 0000 0000 0000 0000 0000 0000 0000 0000
000003c0: 0000 0000 0000 0000 0000 0000 0000 0000
000003d0: 0000 0000 0000 0000 0000 0000 0000 0000
000003e0: 0000 0000 0000 0000 0000 0000 0000 0000
000003f0: 0000 0000 0000 0000 0000 0000 0000 0000
0.035561495 -0.004589723 0.04676428 -0.014672269 -0.0034966809 0.0039640316 0.024664104 1.0166465e-05
0.013457573 -0.019472072 -0.010519054 0.027656581 -0.004903696 -0.0043727346 0.012572812 -0.0033936272
0.0098808445 0.016279632 -0.017873665 -0.020938154 0.007857773 -0.006159451 0.044441544 -0.004275309
-0.013664533 -0.013918908 -0.01792587 -0.056982793 0.010094798 -0.012827938 -0.0054816864 0.019775335
-0.00606312 -0.018183224 -0.004078763 0.010429723 0.027282262 -0.010603725 -0.010687783 -0.0019564948
-0.051242255 -0.009540931 0.031034706 -0.005898503 0.037638843 0.002816871 -0.00059591007 -0.03418958
-0.014794501 0.06402485 -0.0019081571 0.000576903 0.0010498632 -0.012416197 -0.002382033 -0.0052858433
-0.010931121 -0.0036443344 -0.008753553 0.030586418 -0.0010529907 -0.025547259 -0.027456645 0.013055162
-0.017066585 0.057662155 0.044322297 -0.0032564392 0.020290125 0.00013403155 -0.0033500702 -0.0040304377
0.0044644778 0.0034924292 0.0038553288 -0.020412648 -0.009970378 -0.0017635404 0.0019857432 -0.010311171
-0.009115222 -0.010221869 -0.012111013 -0.006184959 0.026430195 -0.004592529 0.011882144 0.018051114
-0.002702587 -0.009854473 0.06324858 -0.017472241 -0.021193713 -0.0039124573 -0.0031010283 0.019573838
0.0061174617 0.0008577612 0.020267585 -0.012659805 -0.0068274676 0.048354823 -0.0044138418 0.018903997
-0.005681348 -0.0062886407 -0.002961911 -0.011055961 -0.0033437884 -0.02090219 -0.0060750577 0.023117965
-0.0076317904 -0.009306654 -0.020937469 -0.004334633 0.006256178 0.0061903014 0.00048384335 -0.0029666924
-0.0062340596 -0.004987816 -0.018304698 0.0024622462 -0.008613279 -0.01287564 -0.02334016 0.025378926
0.0 0.0 0.0 0.0 0.0 0.0 0.0 0.0
0.0 0.0 0.0 0.0 0.0 0.0 0.0 0.0
0.0 0.0 0.0 0.0 0.0 0.0 0.0 0.0
0.0 0.0 0.0 0.0 0.0 0.0 0.0 0.0
0.0 0.0 0.0 0.0 0.0 0.0 0.0 0.0
0.0 0.0 0.0 0.0 0.0 0.0 0.0 0.0
0.0 0.0 0.0 0.0 0.0 0.0 0.0 0.0
0.0 0.0 0.0 0.0 0.0 0.0 0.0 0.0
0.0 0.0 0.0 0.0 0.0 0.0 0.0 0.0
0.0 0.0 0.0 0.0 0.0 0.0 0.0 0.0
0.0 0.0 0.0 0.0 0.0 0.0 0.0 0.0
0.0 0.0 0.0 0.0 0.0 0.0 0.0 0.0
0.0 0.0 0.0 0.0 0.0 0.0 0.0 0.0
0.0 0.0 0.0 0.0 0.0 0.0 0.0 0.0
0.0 0.0 0.0 0.0 0.0 0.0 0.0 0.0
0.0 0.0 0.0 0.0 0.0 0.0 0.0 0.0

bias_hh_l0_reverse f4 [512]
00000000: eea8 113d 6365 96bb e78b 3f3d f563 70bc
00000010: 9228 65bb b5e4 813b 600c ca3c a290 2a37
00000020: 277d 5c3c e583 9fbc 1c58 2cbc 0e90 e23c
00000030: 2faf a0bb 2849 8fbb 32fe 4d3c 9e67 5ebb
00000040: 44e3 213c dd5c 853c cb6b 92bc 7e86 abbc
00000050: e4bd 003c 38d5 c9bb 5608 363d e417 8cbb
00000060: 35e1 5fbc 220c 64bc 46d9 92bc ca66 69bd
00000070: a764 253c 462c 52bc b89f b3bb e2ff a13c
00000080: 23ad c6bb fcf4 94bc 25a7 85bb 6ee1 2a3c
00000090: 0d7f df3c 3fbb 2dbc d01b 2fbc 8938 00bb
000000a0: 66e3 51bd 9151 1cbc 7f3c fe3c 3b48 c1bb
000000b0: 302b 1a3d 419b 383b d936 1cba 5f0a 0cbd
000000c0: a264 72bc 761f 833d 211b faba 4e3b 173a
000000d0: 909b 893a 4e6d 4bbc e21b 1cbb de34 adbb
000000e0: 7218 33bc c9d5 6ebb 106b 0fbc 5e90 fa3c
000000f0: 8104 8aba 7c48 d1bc c2ec e0bc 51e5 553c
00000100: 39cf 8bbc 272f 6c3d 4c8b 353d fc69 55bb
00000110: 7a37 a63c d28a 0c39 da8c 5bbb c311 84bb
00000120: c14a 923b 3de1 643b afa9 7c3b 6d38 a7bc
00000130: cc5a 23bc 9926 e7ba 3e23 023b 30f0 28bc
00000140: 0358 15bc a079 27bc 456d 46bc 32ab cabb
00000150: 2384 d83c ed7c 96bb 53ad 423c eedf 933c
00000160: e31d 31bb a874 21bc 7988 813d f221 8fbc
00000170: 709e adbc 1234 80bb 9f3a 4bbb 5059 a03c
00000180: fd74 c83b 61db 603a 3508 a63c 126b 4fbc
00000190: f3b8 dfbb b50f 463d fda1 90bb 8edc 9a3c
000001a0: 9a2a babb f110 cebb 9f1c 42bb 1024 35bc
000001b0: 7623 5bbb 123b abbc 4711 c7bb e361 bd3c
000001c0: 1914 fabb f07a 18bc 0e85 abbc 8909 8ebb
000001d0: a000 cd3b 03d8 ca3b 5bac fd39 d76c 42bb
000001e0: 1547 ccbb d570 a3bb bcf3 95bc a35d 213b
000001f0: b61e 0dbc 59f4 52bc dd33 bfbc 77e7 cf3c
00000200: 0000 0000 0000 0000 0000 0000 0000 0000
00000210: 0000 0000 0000 0000 0000 0000 0000 0000
00000220: 0000 0000 0000 0000 0000 0000 0000 0000
00000230: 0000 0000 0000 0000 0000 0000 0000 0000
00000240: 0000 0000 0000 0000 0000 0000 0000 0000
00000250: 0000 0000 0000 0000 0000 0000 0000 0000
00000260: 0000 0000 0000 0000 0000 0000 0000 0000
00000270: 0000 0000 0000 0000 0000 0000 0000 0000
00000280: 0000 0000 0000 0000 0000 0000 0000 0000
00000290: 0000 0000 0000 0000 0000 0000 0000 0000
000002a0: 0000 0000 0000 0000 0000 0000 0000 0000
000002b0: 0000 0000 0000 0000 0000 0000 0000 0000
000002c0: 0000 0000 0000 0000 0000 0000 0000 0000
000002d0: 0000 0000 0000 0000 0000 0000 0000 0000
000002e0: 0000 0000 0000 0000 0000 0000 0000 0000
000002f0: 0000 0000 0000 0000 0000 0000 0000 0000
00000300: 0000 0000 0000 0000 0000 0000 0000 0000
00000310: 0000 0000 0000 0000 0000 0000 0000 0000
00000320: 0000 0000 0000 0000 0000 0000 0000 0000
00000330: 0000 0000 0000 0000 0000 0000 0000 0000
00000340: 0000 0000 0000 0000 0000 0000 0000 0000
00000350: 0000 0000 0000 0000 0000 0000 0000 0000
00000360: 0000 0000 0000 0000 0000 0000 0000 0000
00000370: 0000 0000 0000 0000 0000 0000 0000 0000
00000380: 0000 0000 0000 0000 0000 0000 0000 0000
00000390: 0000 0000 0000 0000 0000 0000 0000 0000
000003a0: 0000 0000 0000 0000 0000 0000 0000 0000
000003b0: 0000 0000 0000 0000 0000 0000 0000 0000
000003c0: 0000 0000 0000 0000 0000 0000 0000 0000
000003d0: 0000 0000 0000 0000 0000 0000 0000 0000
000003e0: 0000 0000 0000 0000 0000 0000 0000 0000
000003f0: 0000 0000 0000 0000 0000 0000 0000 0000
0.035561495 -0.004589723 0.04676428 -0.014672269 -0.0034966809 0.0039640316 0.024664104 1.0166465e-05
0.013457573 -0.019472072 -0.010519054 0.027656581 -0.004903696 -0.0043727346 0.012572812 -0.0033936272
0.0098808445 0.016279632 -0.017873665 -0.020938154 0.007857773 -0.006159451 0.044441544 -0.004275309
-0.013664533 -0.013918908 -0.01792587 -0.056982793 0.010094798 -0.012827938 -0.0054816864 0.019775335
-0.00606312 -0.018183224 -0.004078763 0.010429723 0.027282262 -0.010603725 -0.010687783 -0.0019564948
-0.051242255 -0.009540931 0.031034706 -0.005898503 0.037638843 0.002816871 -0.00059591007 -0.03418958
-0.014794501 0.06402485 -0.0019081571 0.000576903 0.0010498632 -0.012416197 -0.002382033 -0.0052858433
-0.010931121 -0.0036443344 -0.008753553 0.030586418 -0.0010529907 -0.025547259 -0.027456645 0.013055162
-0.017066585 0.057662155 0.044322297 -0.0032564392 0.020290125 0.00013403155 -0.0033500702 -0.0040304377
0.0044644778 0.0034924292 0.0038553288 -0.020412648 -0.009970378 -0.0017635404 0.0019857432 -0.010311171
-0.009115222 -0.010221869 -0.012111013 -0.006184959 0.026430195 -0.004592529 0.011882144 0.018051114
-0.002702587 -0.009854473 0.06324858 -0.017472241 -0.021193713 -0.0039124573 -0.0031010283 0.019573838
0.0061174617 0.0008577612 0.020267585 -0.012659805 -0.0068274676 0.048354823 -0.0044138418 0.018903997
-0.005681348 -0.0062886407 -0.002961911 -0.011055961 -0.0033437884 -0.02090219 -0.0060750577 0.023117965
-0.0076317904 -0.009306654 -0.020937469 -0.004334633 0.006256178 0.0061903014 0.00048384335 -0.0029666924
-0.0062340596 -0.004987816 -0.018304698 0.0024622462 -0.008613279 -0.01287564 -0.02334016 0.025378926
0.0 0.0 0.0 0.0 0.0 0.0 0.0 0.0
0.0 0.0 0.0 0.0 0.0 0.0 0.0 0.0
0.0 0.0 0.0 0.0 0.0 0.0 0.0 0.0
0.0 0.0 0.0 0.0 0.0 0.0 0.0 0.0
0.0 0.0 0.0 0.0 0.0 0.0 0.0 0.0
0.0 0.0 0.0 0.0 0.0 0.0 0.0 0.0
0.0 0.0 0.0 0.0 0.0 0.0 0.0 0.0
0.0 0.0 0.0 0.0 0.0 0.0 0.0 0.0
0.0 0.0 0.0 0.0 0.0 0.0 0.0 0.0
0.0 0.0 0.0 0.0 0.0 0.0 0.0 0.0
0.0 0.0 0.0 0.0 0.0 0.0 0.0 0.0
0.0 0.0 0.0 0.0 0.0 0.0 0.0 0.0
0.0 0.0 0.0 0.0 0.0 0.0 0.0 0.0
0.0 0.0 0.0 0.0 0.0 0.0 0.0 0.0
0.0 0.0 0.0 0.0 0.0 0.0 0.0 0.0
0.0 0.0 0.0 0.0 0.0 0.0 0.0 0.0
